{"keras_version": "1.2.2", "class_name": "Model", "config": {"layers": [{"config": {"batch_input_shape": [null, 299, 299, 3], "name": "input_1", "sparse": false, "input_dtype": "float32"}, "name": "input_1", "class_name": "InputLayer", "inbound_nodes": []}, {"config": {"W_constraint": null, "bias": true, "trainable": true, "nb_col": 3, "b_regularizer": null, "activity_regularizer": null, "name": "convolution2d_1", "init": "glorot_uniform", "nb_filter": 32, "nb_row": 3, "border_mode": "valid", "W_regularizer": null, "activation": "relu", "b_constraint": null, "dim_ordering": "tf", "subsample": [2, 2]}, "name": "convolution2d_1", "class_name": "Convolution2D", "inbound_nodes": [[["input_1", 0, 0]]]}, {"config": {"gamma_regularizer": null, "epsilon": 0.001, "trainable": true, "momentum": 0.99, "axis": 3, "beta_regularizer": null, "name": "batchnormalization_1", "mode": 0}, "name": "batchnormalization_1", "class_name": "BatchNormalization", "inbound_nodes": [[["convolution2d_1", 0, 0]]]}, {"config": {"W_constraint": null, "bias": true, "trainable": true, "nb_col": 3, "b_regularizer": null, "activity_regularizer": null, "name": "convolution2d_2", "init": "glorot_uniform", "nb_filter": 32, "nb_row": 3, "border_mode": "valid", "W_regularizer": null, "activation": "relu", "b_constraint": null, "dim_ordering": "tf", "subsample": [1, 1]}, "name": "convolution2d_2", "class_name": "Convolution2D", "inbound_nodes": [[["batchnormalization_1", 0, 0]]]}, {"config": {"gamma_regularizer": null, "epsilon": 0.001, "trainable": true, "momentum": 0.99, "axis": 3, "beta_regularizer": null, "name": "batchnormalization_2", "mode": 0}, "name": "batchnormalization_2", "class_name": "BatchNormalization", "inbound_nodes": [[["convolution2d_2", 0, 0]]]}, {"config": {"W_constraint": null, "bias": true, "trainable": true, "nb_col": 3, "b_regularizer": null, "activity_regularizer": null, "name": "convolution2d_3", "init": "glorot_uniform", "nb_filter": 64, "nb_row": 3, "border_mode": "same", "W_regularizer": null, "activation": "relu", "b_constraint": null, "dim_ordering": "tf", "subsample": [1, 1]}, "name": "convolution2d_3", "class_name": "Convolution2D", "inbound_nodes": [[["batchnormalization_2", 0, 0]]]}, {"config": {"gamma_regularizer": null, "epsilon": 0.001, "trainable": true, "momentum": 0.99, "axis": 3, "beta_regularizer": null, "name": "batchnormalization_3", "mode": 0}, "name": "batchnormalization_3", "class_name": "BatchNormalization", "inbound_nodes": [[["convolution2d_3", 0, 0]]]}, {"config": {"strides": [2, 2], "border_mode": "valid", "name": "maxpooling2d_1", "pool_size": [3, 3], "trainable": true, "dim_ordering": "tf"}, "name": "maxpooling2d_1", "class_name": "MaxPooling2D", "inbound_nodes": [[["batchnormalization_3", 0, 0]]]}, {"config": {"W_constraint": null, "bias": true, "trainable": true, "nb_col": 1, "b_regularizer": null, "activity_regularizer": null, "name": "convolution2d_4", "init": "glorot_uniform", "nb_filter": 80, "nb_row": 1, "border_mode": "valid", "W_regularizer": null, "activation": "relu", "b_constraint": null, "dim_ordering": "tf", "subsample": [1, 1]}, "name": "convolution2d_4", "class_name": "Convolution2D", "inbound_nodes": [[["maxpooling2d_1", 0, 0]]]}, {"config": {"gamma_regularizer": null, "epsilon": 0.001, "trainable": true, "momentum": 0.99, "axis": 3, "beta_regularizer": null, "name": "batchnormalization_4", "mode": 0}, "name": "batchnormalization_4", "class_name": "BatchNormalization", "inbound_nodes": [[["convolution2d_4", 0, 0]]]}, {"config": {"W_constraint": null, "bias": true, "trainable": true, "nb_col": 3, "b_regularizer": null, "activity_regularizer": null, "name": "convolution2d_5", "init": "glorot_uniform", "nb_filter": 192, "nb_row": 3, "border_mode": "valid", "W_regularizer": null, "activation": "relu", "b_constraint": null, "dim_ordering": "tf", "subsample": [1, 1]}, "name": "convolution2d_5", "class_name": "Convolution2D", "inbound_nodes": [[["batchnormalization_4", 0, 0]]]}, {"config": {"gamma_regularizer": null, "epsilon": 0.001, "trainable": true, "momentum": 0.99, "axis": 3, "beta_regularizer": null, "name": "batchnormalization_5", "mode": 0}, "name": "batchnormalization_5", "class_name": "BatchNormalization", "inbound_nodes": [[["convolution2d_5", 0, 0]]]}, {"config": {"strides": [2, 2], "border_mode": "valid", "name": "maxpooling2d_2", "pool_size": [3, 3], "trainable": true, "dim_ordering": "tf"}, "name": "maxpooling2d_2", "class_name": "MaxPooling2D", "inbound_nodes": [[["batchnormalization_5", 0, 0]]]}, {"config": {"W_constraint": null, "bias": true, "trainable": true, "nb_col": 1, "b_regularizer": null, "activity_regularizer": null, "name": "convolution2d_9", "init": "glorot_uniform", "nb_filter": 64, "nb_row": 1, "border_mode": "same", "W_regularizer": null, "activation": "relu", "b_constraint": null, "dim_ordering": "tf", "subsample": [1, 1]}, "name": "convolution2d_9", "class_name": "Convolution2D", "inbound_nodes": [[["maxpooling2d_2", 0, 0]]]}, {"config": {"gamma_regularizer": null, "epsilon": 0.001, "trainable": true, "momentum": 0.99, "axis": 3, "beta_regularizer": null, "name": "batchnormalization_9", "mode": 0}, "name": "batchnormalization_9", "class_name": "BatchNormalization", "inbound_nodes": [[["convolution2d_9", 0, 0]]]}, {"config": {"W_constraint": null, "bias": true, "trainable": true, "nb_col": 1, "b_regularizer": null, "activity_regularizer": null, "name": "convolution2d_7", "init": "glorot_uniform", "nb_filter": 48, "nb_row": 1, "border_mode": "same", "W_regularizer": null, "activation": "relu", "b_constraint": null, "dim_ordering": "tf", "subsample": [1, 1]}, "name": "convolution2d_7", "class_name": "Convolution2D", "inbound_nodes": [[["maxpooling2d_2", 0, 0]]]}, {"config": {"W_constraint": null, "bias": true, "trainable": true, "nb_col": 3, "b_regularizer": null, "activity_regularizer": null, "name": "convolution2d_10", "init": "glorot_uniform", "nb_filter": 96, "nb_row": 3, "border_mode": "same", "W_regularizer": null, "activation": "relu", "b_constraint": null, "dim_ordering": "tf", "subsample": [1, 1]}, "name": "convolution2d_10", "class_name": "Convolution2D", "inbound_nodes": [[["batchnormalization_9", 0, 0]]]}, {"config": {"gamma_regularizer": null, "epsilon": 0.001, "trainable": true, "momentum": 0.99, "axis": 3, "beta_regularizer": null, "name": "batchnormalization_7", "mode": 0}, "name": "batchnormalization_7", "class_name": "BatchNormalization", "inbound_nodes": [[["convolution2d_7", 0, 0]]]}, {"config": {"gamma_regularizer": null, "epsilon": 0.001, "trainable": true, "momentum": 0.99, "axis": 3, "beta_regularizer": null, "name": "batchnormalization_10", "mode": 0}, "name": "batchnormalization_10", "class_name": "BatchNormalization", "inbound_nodes": [[["convolution2d_10", 0, 0]]]}, {"config": {"strides": [1, 1], "border_mode": "same", "name": "averagepooling2d_1", "pool_size": [3, 3], "trainable": true, "dim_ordering": "tf"}, "name": "averagepooling2d_1", "class_name": "AveragePooling2D", "inbound_nodes": [[["maxpooling2d_2", 0, 0]]]}, {"config": {"W_constraint": null, "bias": true, "trainable": true, "nb_col": 1, "b_regularizer": null, "activity_regularizer": null, "name": "convolution2d_6", "init": "glorot_uniform", "nb_filter": 64, "nb_row": 1, "border_mode": "same", "W_regularizer": null, "activation": "relu", "b_constraint": null, "dim_ordering": "tf", "subsample": [1, 1]}, "name": "convolution2d_6", "class_name": "Convolution2D", "inbound_nodes": [[["maxpooling2d_2", 0, 0]]]}, {"config": {"W_constraint": null, "bias": true, "trainable": true, "nb_col": 5, "b_regularizer": null, "activity_regularizer": null, "name": "convolution2d_8", "init": "glorot_uniform", "nb_filter": 64, "nb_row": 5, "border_mode": "same", "W_regularizer": null, "activation": "relu", "b_constraint": null, "dim_ordering": "tf", "subsample": [1, 1]}, "name": "convolution2d_8", "class_name": "Convolution2D", "inbound_nodes": [[["batchnormalization_7", 0, 0]]]}, {"config": {"W_constraint": null, "bias": true, "trainable": true, "nb_col": 3, "b_regularizer": null, "activity_regularizer": null, "name": "convolution2d_11", "init": "glorot_uniform", "nb_filter": 96, "nb_row": 3, "border_mode": "same", "W_regularizer": null, "activation": "relu", "b_constraint": null, "dim_ordering": "tf", "subsample": [1, 1]}, "name": "convolution2d_11", "class_name": "Convolution2D", "inbound_nodes": [[["batchnormalization_10", 0, 0]]]}, {"config": {"W_constraint": null, "bias": true, "trainable": true, "nb_col": 1, "b_regularizer": null, "activity_regularizer": null, "name": "convolution2d_12", "init": "glorot_uniform", "nb_filter": 32, "nb_row": 1, "border_mode": "same", "W_regularizer": null, "activation": "relu", "b_constraint": null, "dim_ordering": "tf", "subsample": [1, 1]}, "name": "convolution2d_12", "class_name": "Convolution2D", "inbound_nodes": [[["averagepooling2d_1", 0, 0]]]}, {"config": {"gamma_regularizer": null, "epsilon": 0.001, "trainable": true, "momentum": 0.99, "axis": 3, "beta_regularizer": null, "name": "batchnormalization_6", "mode": 0}, "name": "batchnormalization_6", "class_name": "BatchNormalization", "inbound_nodes": [[["convolution2d_6", 0, 0]]]}, {"config": {"gamma_regularizer": null, "epsilon": 0.001, "trainable": true, "momentum": 0.99, "axis": 3, "beta_regularizer": null, "name": "batchnormalization_8", "mode": 0}, "name": "batchnormalization_8", "class_name": "BatchNormalization", "inbound_nodes": [[["convolution2d_8", 0, 0]]]}, {"config": {"gamma_regularizer": null, "epsilon": 0.001, "trainable": true, "momentum": 0.99, "axis": 3, "beta_regularizer": null, "name": "batchnormalization_11", "mode": 0}, "name": "batchnormalization_11", "class_name": "BatchNormalization", "inbound_nodes": [[["convolution2d_11", 0, 0]]]}, {"config": {"gamma_regularizer": null, "epsilon": 0.001, "trainable": true, "momentum": 0.99, "axis": 3, "beta_regularizer": null, "name": "batchnormalization_12", "mode": 0}, "name": "batchnormalization_12", "class_name": "BatchNormalization", "inbound_nodes": [[["convolution2d_12", 0, 0]]]}, {"config": {"concat_axis": 3, "output_mask_type": "raw", "mode": "concat", "mode_type": "raw", "arguments": {}, "name": "mixed0", "output_shape_type": "raw", "output_mask": null, "output_shape": null, "dot_axes": -1}, "name": "mixed0", "class_name": "Merge", "inbound_nodes": [[["batchnormalization_6", 0, 0], ["batchnormalization_8", 0, 0], ["batchnormalization_11", 0, 0], ["batchnormalization_12", 0, 0]]]}, {"config": {"W_constraint": null, "bias": true, "trainable": true, "nb_col": 1, "b_regularizer": null, "activity_regularizer": null, "name": "convolution2d_16", "init": "glorot_uniform", "nb_filter": 64, "nb_row": 1, "border_mode": "same", "W_regularizer": null, "activation": "relu", "b_constraint": null, "dim_ordering": "tf", "subsample": [1, 1]}, "name": "convolution2d_16", "class_name": "Convolution2D", "inbound_nodes": [[["mixed0", 0, 0]]]}, {"config": {"gamma_regularizer": null, "epsilon": 0.001, "trainable": true, "momentum": 0.99, "axis": 3, "beta_regularizer": null, "name": "batchnormalization_16", "mode": 0}, "name": "batchnormalization_16", "class_name": "BatchNormalization", "inbound_nodes": [[["convolution2d_16", 0, 0]]]}, {"config": {"W_constraint": null, "bias": true, "trainable": true, "nb_col": 1, "b_regularizer": null, "activity_regularizer": null, "name": "convolution2d_14", "init": "glorot_uniform", "nb_filter": 48, "nb_row": 1, "border_mode": "same", "W_regularizer": null, "activation": "relu", "b_constraint": null, "dim_ordering": "tf", "subsample": [1, 1]}, "name": "convolution2d_14", "class_name": "Convolution2D", "inbound_nodes": [[["mixed0", 0, 0]]]}, {"config": {"W_constraint": null, "bias": true, "trainable": true, "nb_col": 3, "b_regularizer": null, "activity_regularizer": null, "name": "convolution2d_17", "init": "glorot_uniform", "nb_filter": 96, "nb_row": 3, "border_mode": "same", "W_regularizer": null, "activation": "relu", "b_constraint": null, "dim_ordering": "tf", "subsample": [1, 1]}, "name": "convolution2d_17", "class_name": "Convolution2D", "inbound_nodes": [[["batchnormalization_16", 0, 0]]]}, {"config": {"gamma_regularizer": null, "epsilon": 0.001, "trainable": true, "momentum": 0.99, "axis": 3, "beta_regularizer": null, "name": "batchnormalization_14", "mode": 0}, "name": "batchnormalization_14", "class_name": "BatchNormalization", "inbound_nodes": [[["convolution2d_14", 0, 0]]]}, {"config": {"gamma_regularizer": null, "epsilon": 0.001, "trainable": true, "momentum": 0.99, "axis": 3, "beta_regularizer": null, "name": "batchnormalization_17", "mode": 0}, "name": "batchnormalization_17", "class_name": "BatchNormalization", "inbound_nodes": [[["convolution2d_17", 0, 0]]]}, {"config": {"strides": [1, 1], "border_mode": "same", "name": "averagepooling2d_2", "pool_size": [3, 3], "trainable": true, "dim_ordering": "tf"}, "name": "averagepooling2d_2", "class_name": "AveragePooling2D", "inbound_nodes": [[["mixed0", 0, 0]]]}, {"config": {"W_constraint": null, "bias": true, "trainable": true, "nb_col": 1, "b_regularizer": null, "activity_regularizer": null, "name": "convolution2d_13", "init": "glorot_uniform", "nb_filter": 64, "nb_row": 1, "border_mode": "same", "W_regularizer": null, "activation": "relu", "b_constraint": null, "dim_ordering": "tf", "subsample": [1, 1]}, "name": "convolution2d_13", "class_name": "Convolution2D", "inbound_nodes": [[["mixed0", 0, 0]]]}, {"config": {"W_constraint": null, "bias": true, "trainable": true, "nb_col": 5, "b_regularizer": null, "activity_regularizer": null, "name": "convolution2d_15", "init": "glorot_uniform", "nb_filter": 64, "nb_row": 5, "border_mode": "same", "W_regularizer": null, "activation": "relu", "b_constraint": null, "dim_ordering": "tf", "subsample": [1, 1]}, "name": "convolution2d_15", "class_name": "Convolution2D", "inbound_nodes": [[["batchnormalization_14", 0, 0]]]}, {"config": {"W_constraint": null, "bias": true, "trainable": true, "nb_col": 3, "b_regularizer": null, "activity_regularizer": null, "name": "convolution2d_18", "init": "glorot_uniform", "nb_filter": 96, "nb_row": 3, "border_mode": "same", "W_regularizer": null, "activation": "relu", "b_constraint": null, "dim_ordering": "tf", "subsample": [1, 1]}, "name": "convolution2d_18", "class_name": "Convolution2D", "inbound_nodes": [[["batchnormalization_17", 0, 0]]]}, {"config": {"W_constraint": null, "bias": true, "trainable": true, "nb_col": 1, "b_regularizer": null, "activity_regularizer": null, "name": "convolution2d_19", "init": "glorot_uniform", "nb_filter": 32, "nb_row": 1, "border_mode": "same", "W_regularizer": null, "activation": "relu", "b_constraint": null, "dim_ordering": "tf", "subsample": [1, 1]}, "name": "convolution2d_19", "class_name": "Convolution2D", "inbound_nodes": [[["averagepooling2d_2", 0, 0]]]}, {"config": {"gamma_regularizer": null, "epsilon": 0.001, "trainable": true, "momentum": 0.99, "axis": 3, "beta_regularizer": null, "name": "batchnormalization_13", "mode": 0}, "name": "batchnormalization_13", "class_name": "BatchNormalization", "inbound_nodes": [[["convolution2d_13", 0, 0]]]}, {"config": {"gamma_regularizer": null, "epsilon": 0.001, "trainable": true, "momentum": 0.99, "axis": 3, "beta_regularizer": null, "name": "batchnormalization_15", "mode": 0}, "name": "batchnormalization_15", "class_name": "BatchNormalization", "inbound_nodes": [[["convolution2d_15", 0, 0]]]}, {"config": {"gamma_regularizer": null, "epsilon": 0.001, "trainable": true, "momentum": 0.99, "axis": 3, "beta_regularizer": null, "name": "batchnormalization_18", "mode": 0}, "name": "batchnormalization_18", "class_name": "BatchNormalization", "inbound_nodes": [[["convolution2d_18", 0, 0]]]}, {"config": {"gamma_regularizer": null, "epsilon": 0.001, "trainable": true, "momentum": 0.99, "axis": 3, "beta_regularizer": null, "name": "batchnormalization_19", "mode": 0}, "name": "batchnormalization_19", "class_name": "BatchNormalization", "inbound_nodes": [[["convolution2d_19", 0, 0]]]}, {"config": {"concat_axis": 3, "output_mask_type": "raw", "mode": "concat", "mode_type": "raw", "arguments": {}, "name": "mixed1", "output_shape_type": "raw", "output_mask": null, "output_shape": null, "dot_axes": -1}, "name": "mixed1", "class_name": "Merge", "inbound_nodes": [[["batchnormalization_13", 0, 0], ["batchnormalization_15", 0, 0], ["batchnormalization_18", 0, 0], ["batchnormalization_19", 0, 0]]]}, {"config": {"W_constraint": null, "bias": true, "trainable": true, "nb_col": 1, "b_regularizer": null, "activity_regularizer": null, "name": "convolution2d_23", "init": "glorot_uniform", "nb_filter": 64, "nb_row": 1, "border_mode": "same", "W_regularizer": null, "activation": "relu", "b_constraint": null, "dim_ordering": "tf", "subsample": [1, 1]}, "name": "convolution2d_23", "class_name": "Convolution2D", "inbound_nodes": [[["mixed1", 0, 0]]]}, {"config": {"gamma_regularizer": null, "epsilon": 0.001, "trainable": true, "momentum": 0.99, "axis": 3, "beta_regularizer": null, "name": "batchnormalization_23", "mode": 0}, "name": "batchnormalization_23", "class_name": "BatchNormalization", "inbound_nodes": [[["convolution2d_23", 0, 0]]]}, {"config": {"W_constraint": null, "bias": true, "trainable": true, "nb_col": 1, "b_regularizer": null, "activity_regularizer": null, "name": "convolution2d_21", "init": "glorot_uniform", "nb_filter": 48, "nb_row": 1, "border_mode": "same", "W_regularizer": null, "activation": "relu", "b_constraint": null, "dim_ordering": "tf", "subsample": [1, 1]}, "name": "convolution2d_21", "class_name": "Convolution2D", "inbound_nodes": [[["mixed1", 0, 0]]]}, {"config": {"W_constraint": null, "bias": true, "trainable": true, "nb_col": 3, "b_regularizer": null, "activity_regularizer": null, "name": "convolution2d_24", "init": "glorot_uniform", "nb_filter": 96, "nb_row": 3, "border_mode": "same", "W_regularizer": null, "activation": "relu", "b_constraint": null, "dim_ordering": "tf", "subsample": [1, 1]}, "name": "convolution2d_24", "class_name": "Convolution2D", "inbound_nodes": [[["batchnormalization_23", 0, 0]]]}, {"config": {"gamma_regularizer": null, "epsilon": 0.001, "trainable": true, "momentum": 0.99, "axis": 3, "beta_regularizer": null, "name": "batchnormalization_21", "mode": 0}, "name": "batchnormalization_21", "class_name": "BatchNormalization", "inbound_nodes": [[["convolution2d_21", 0, 0]]]}, {"config": {"gamma_regularizer": null, "epsilon": 0.001, "trainable": true, "momentum": 0.99, "axis": 3, "beta_regularizer": null, "name": "batchnormalization_24", "mode": 0}, "name": "batchnormalization_24", "class_name": "BatchNormalization", "inbound_nodes": [[["convolution2d_24", 0, 0]]]}, {"config": {"strides": [1, 1], "border_mode": "same", "name": "averagepooling2d_3", "pool_size": [3, 3], "trainable": true, "dim_ordering": "tf"}, "name": "averagepooling2d_3", "class_name": "AveragePooling2D", "inbound_nodes": [[["mixed1", 0, 0]]]}, {"config": {"W_constraint": null, "bias": true, "trainable": true, "nb_col": 1, "b_regularizer": null, "activity_regularizer": null, "name": "convolution2d_20", "init": "glorot_uniform", "nb_filter": 64, "nb_row": 1, "border_mode": "same", "W_regularizer": null, "activation": "relu", "b_constraint": null, "dim_ordering": "tf", "subsample": [1, 1]}, "name": "convolution2d_20", "class_name": "Convolution2D", "inbound_nodes": [[["mixed1", 0, 0]]]}, {"config": {"W_constraint": null, "bias": true, "trainable": true, "nb_col": 5, "b_regularizer": null, "activity_regularizer": null, "name": "convolution2d_22", "init": "glorot_uniform", "nb_filter": 64, "nb_row": 5, "border_mode": "same", "W_regularizer": null, "activation": "relu", "b_constraint": null, "dim_ordering": "tf", "subsample": [1, 1]}, "name": "convolution2d_22", "class_name": "Convolution2D", "inbound_nodes": [[["batchnormalization_21", 0, 0]]]}, {"config": {"W_constraint": null, "bias": true, "trainable": true, "nb_col": 3, "b_regularizer": null, "activity_regularizer": null, "name": "convolution2d_25", "init": "glorot_uniform", "nb_filter": 96, "nb_row": 3, "border_mode": "same", "W_regularizer": null, "activation": "relu", "b_constraint": null, "dim_ordering": "tf", "subsample": [1, 1]}, "name": "convolution2d_25", "class_name": "Convolution2D", "inbound_nodes": [[["batchnormalization_24", 0, 0]]]}, {"config": {"W_constraint": null, "bias": true, "trainable": true, "nb_col": 1, "b_regularizer": null, "activity_regularizer": null, "name": "convolution2d_26", "init": "glorot_uniform", "nb_filter": 32, "nb_row": 1, "border_mode": "same", "W_regularizer": null, "activation": "relu", "b_constraint": null, "dim_ordering": "tf", "subsample": [1, 1]}, "name": "convolution2d_26", "class_name": "Convolution2D", "inbound_nodes": [[["averagepooling2d_3", 0, 0]]]}, {"config": {"gamma_regularizer": null, "epsilon": 0.001, "trainable": true, "momentum": 0.99, "axis": 3, "beta_regularizer": null, "name": "batchnormalization_20", "mode": 0}, "name": "batchnormalization_20", "class_name": "BatchNormalization", "inbound_nodes": [[["convolution2d_20", 0, 0]]]}, {"config": {"gamma_regularizer": null, "epsilon": 0.001, "trainable": true, "momentum": 0.99, "axis": 3, "beta_regularizer": null, "name": "batchnormalization_22", "mode": 0}, "name": "batchnormalization_22", "class_name": "BatchNormalization", "inbound_nodes": [[["convolution2d_22", 0, 0]]]}, {"config": {"gamma_regularizer": null, "epsilon": 0.001, "trainable": true, "momentum": 0.99, "axis": 3, "beta_regularizer": null, "name": "batchnormalization_25", "mode": 0}, "name": "batchnormalization_25", "class_name": "BatchNormalization", "inbound_nodes": [[["convolution2d_25", 0, 0]]]}, {"config": {"gamma_regularizer": null, "epsilon": 0.001, "trainable": true, "momentum": 0.99, "axis": 3, "beta_regularizer": null, "name": "batchnormalization_26", "mode": 0}, "name": "batchnormalization_26", "class_name": "BatchNormalization", "inbound_nodes": [[["convolution2d_26", 0, 0]]]}, {"config": {"concat_axis": 3, "output_mask_type": "raw", "mode": "concat", "mode_type": "raw", "arguments": {}, "name": "mixed2", "output_shape_type": "raw", "output_mask": null, "output_shape": null, "dot_axes": -1}, "name": "mixed2", "class_name": "Merge", "inbound_nodes": [[["batchnormalization_20", 0, 0], ["batchnormalization_22", 0, 0], ["batchnormalization_25", 0, 0], ["batchnormalization_26", 0, 0]]]}, {"config": {"W_constraint": null, "bias": true, "trainable": true, "nb_col": 1, "b_regularizer": null, "activity_regularizer": null, "name": "convolution2d_28", "init": "glorot_uniform", "nb_filter": 64, "nb_row": 1, "border_mode": "same", "W_regularizer": null, "activation": "relu", "b_constraint": null, "dim_ordering": "tf", "subsample": [1, 1]}, "name": "convolution2d_28", "class_name": "Convolution2D", "inbound_nodes": [[["mixed2", 0, 0]]]}, {"config": {"gamma_regularizer": null, "epsilon": 0.001, "trainable": true, "momentum": 0.99, "axis": 3, "beta_regularizer": null, "name": "batchnormalization_28", "mode": 0}, "name": "batchnormalization_28", "class_name": "BatchNormalization", "inbound_nodes": [[["convolution2d_28", 0, 0]]]}, {"config": {"W_constraint": null, "bias": true, "trainable": true, "nb_col": 3, "b_regularizer": null, "activity_regularizer": null, "name": "convolution2d_29", "init": "glorot_uniform", "nb_filter": 96, "nb_row": 3, "border_mode": "same", "W_regularizer": null, "activation": "relu", "b_constraint": null, "dim_ordering": "tf", "subsample": [1, 1]}, "name": "convolution2d_29", "class_name": "Convolution2D", "inbound_nodes": [[["batchnormalization_28", 0, 0]]]}, {"config": {"gamma_regularizer": null, "epsilon": 0.001, "trainable": true, "momentum": 0.99, "axis": 3, "beta_regularizer": null, "name": "batchnormalization_29", "mode": 0}, "name": "batchnormalization_29", "class_name": "BatchNormalization", "inbound_nodes": [[["convolution2d_29", 0, 0]]]}, {"config": {"W_constraint": null, "bias": true, "trainable": true, "nb_col": 3, "b_regularizer": null, "activity_regularizer": null, "name": "convolution2d_27", "init": "glorot_uniform", "nb_filter": 384, "nb_row": 3, "border_mode": "valid", "W_regularizer": null, "activation": "relu", "b_constraint": null, "dim_ordering": "tf", "subsample": [2, 2]}, "name": "convolution2d_27", "class_name": "Convolution2D", "inbound_nodes": [[["mixed2", 0, 0]]]}, {"config": {"W_constraint": null, "bias": true, "trainable": true, "nb_col": 3, "b_regularizer": null, "activity_regularizer": null, "name": "convolution2d_30", "init": "glorot_uniform", "nb_filter": 96, "nb_row": 3, "border_mode": "valid", "W_regularizer": null, "activation": "relu", "b_constraint": null, "dim_ordering": "tf", "subsample": [2, 2]}, "name": "convolution2d_30", "class_name": "Convolution2D", "inbound_nodes": [[["batchnormalization_29", 0, 0]]]}, {"config": {"gamma_regularizer": null, "epsilon": 0.001, "trainable": true, "momentum": 0.99, "axis": 3, "beta_regularizer": null, "name": "batchnormalization_27", "mode": 0}, "name": "batchnormalization_27", "class_name": "BatchNormalization", "inbound_nodes": [[["convolution2d_27", 0, 0]]]}, {"config": {"gamma_regularizer": null, "epsilon": 0.001, "trainable": true, "momentum": 0.99, "axis": 3, "beta_regularizer": null, "name": "batchnormalization_30", "mode": 0}, "name": "batchnormalization_30", "class_name": "BatchNormalization", "inbound_nodes": [[["convolution2d_30", 0, 0]]]}, {"config": {"strides": [2, 2], "border_mode": "valid", "name": "maxpooling2d_3", "pool_size": [3, 3], "trainable": true, "dim_ordering": "tf"}, "name": "maxpooling2d_3", "class_name": "MaxPooling2D", "inbound_nodes": [[["mixed2", 0, 0]]]}, {"config": {"concat_axis": 3, "output_mask_type": "raw", "mode": "concat", "mode_type": "raw", "arguments": {}, "name": "mixed3", "output_shape_type": "raw", "output_mask": null, "output_shape": null, "dot_axes": -1}, "name": "mixed3", "class_name": "Merge", "inbound_nodes": [[["batchnormalization_27", 0, 0], ["batchnormalization_30", 0, 0], ["maxpooling2d_3", 0, 0]]]}, {"config": {"W_constraint": null, "bias": true, "trainable": true, "nb_col": 1, "b_regularizer": null, "activity_regularizer": null, "name": "convolution2d_35", "init": "glorot_uniform", "nb_filter": 128, "nb_row": 1, "border_mode": "same", "W_regularizer": null, "activation": "relu", "b_constraint": null, "dim_ordering": "tf", "subsample": [1, 1]}, "name": "convolution2d_35", "class_name": "Convolution2D", "inbound_nodes": [[["mixed3", 0, 0]]]}, {"config": {"gamma_regularizer": null, "epsilon": 0.001, "trainable": true, "momentum": 0.99, "axis": 3, "beta_regularizer": null, "name": "batchnormalization_35", "mode": 0}, "name": "batchnormalization_35", "class_name": "BatchNormalization", "inbound_nodes": [[["convolution2d_35", 0, 0]]]}, {"config": {"W_constraint": null, "bias": true, "trainable": true, "nb_col": 1, "b_regularizer": null, "activity_regularizer": null, "name": "convolution2d_36", "init": "glorot_uniform", "nb_filter": 128, "nb_row": 7, "border_mode": "same", "W_regularizer": null, "activation": "relu", "b_constraint": null, "dim_ordering": "tf", "subsample": [1, 1]}, "name": "convolution2d_36", "class_name": "Convolution2D", "inbound_nodes": [[["batchnormalization_35", 0, 0]]]}, {"config": {"gamma_regularizer": null, "epsilon": 0.001, "trainable": true, "momentum": 0.99, "axis": 3, "beta_regularizer": null, "name": "batchnormalization_36", "mode": 0}, "name": "batchnormalization_36", "class_name": "BatchNormalization", "inbound_nodes": [[["convolution2d_36", 0, 0]]]}, {"config": {"W_constraint": null, "bias": true, "trainable": true, "nb_col": 1, "b_regularizer": null, "activity_regularizer": null, "name": "convolution2d_32", "init": "glorot_uniform", "nb_filter": 128, "nb_row": 1, "border_mode": "same", "W_regularizer": null, "activation": "relu", "b_constraint": null, "dim_ordering": "tf", "subsample": [1, 1]}, "name": "convolution2d_32", "class_name": "Convolution2D", "inbound_nodes": [[["mixed3", 0, 0]]]}, {"config": {"W_constraint": null, "bias": true, "trainable": true, "nb_col": 7, "b_regularizer": null, "activity_regularizer": null, "name": "convolution2d_37", "init": "glorot_uniform", "nb_filter": 128, "nb_row": 1, "border_mode": "same", "W_regularizer": null, "activation": "relu", "b_constraint": null, "dim_ordering": "tf", "subsample": [1, 1]}, "name": "convolution2d_37", "class_name": "Convolution2D", "inbound_nodes": [[["batchnormalization_36", 0, 0]]]}, {"config": {"gamma_regularizer": null, "epsilon": 0.001, "trainable": true, "momentum": 0.99, "axis": 3, "beta_regularizer": null, "name": "batchnormalization_32", "mode": 0}, "name": "batchnormalization_32", "class_name": "BatchNormalization", "inbound_nodes": [[["convolution2d_32", 0, 0]]]}, {"config": {"gamma_regularizer": null, "epsilon": 0.001, "trainable": true, "momentum": 0.99, "axis": 3, "beta_regularizer": null, "name": "batchnormalization_37", "mode": 0}, "name": "batchnormalization_37", "class_name": "BatchNormalization", "inbound_nodes": [[["convolution2d_37", 0, 0]]]}, {"config": {"W_constraint": null, "bias": true, "trainable": true, "nb_col": 7, "b_regularizer": null, "activity_regularizer": null, "name": "convolution2d_33", "init": "glorot_uniform", "nb_filter": 128, "nb_row": 1, "border_mode": "same", "W_regularizer": null, "activation": "relu", "b_constraint": null, "dim_ordering": "tf", "subsample": [1, 1]}, "name": "convolution2d_33", "class_name": "Convolution2D", "inbound_nodes": [[["batchnormalization_32", 0, 0]]]}, {"config": {"W_constraint": null, "bias": true, "trainable": true, "nb_col": 1, "b_regularizer": null, "activity_regularizer": null, "name": "convolution2d_38", "init": "glorot_uniform", "nb_filter": 128, "nb_row": 7, "border_mode": "same", "W_regularizer": null, "activation": "relu", "b_constraint": null, "dim_ordering": "tf", "subsample": [1, 1]}, "name": "convolution2d_38", "class_name": "Convolution2D", "inbound_nodes": [[["batchnormalization_37", 0, 0]]]}, {"config": {"gamma_regularizer": null, "epsilon": 0.001, "trainable": true, "momentum": 0.99, "axis": 3, "beta_regularizer": null, "name": "batchnormalization_33", "mode": 0}, "name": "batchnormalization_33", "class_name": "BatchNormalization", "inbound_nodes": [[["convolution2d_33", 0, 0]]]}, {"config": {"gamma_regularizer": null, "epsilon": 0.001, "trainable": true, "momentum": 0.99, "axis": 3, "beta_regularizer": null, "name": "batchnormalization_38", "mode": 0}, "name": "batchnormalization_38", "class_name": "BatchNormalization", "inbound_nodes": [[["convolution2d_38", 0, 0]]]}, {"config": {"strides": [1, 1], "border_mode": "same", "name": "averagepooling2d_4", "pool_size": [3, 3], "trainable": true, "dim_ordering": "tf"}, "name": "averagepooling2d_4", "class_name": "AveragePooling2D", "inbound_nodes": [[["mixed3", 0, 0]]]}, {"config": {"W_constraint": null, "bias": true, "trainable": true, "nb_col": 1, "b_regularizer": null, "activity_regularizer": null, "name": "convolution2d_31", "init": "glorot_uniform", "nb_filter": 192, "nb_row": 1, "border_mode": "same", "W_regularizer": null, "activation": "relu", "b_constraint": null, "dim_ordering": "tf", "subsample": [1, 1]}, "name": "convolution2d_31", "class_name": "Convolution2D", "inbound_nodes": [[["mixed3", 0, 0]]]}, {"config": {"W_constraint": null, "bias": true, "trainable": true, "nb_col": 1, "b_regularizer": null, "activity_regularizer": null, "name": "convolution2d_34", "init": "glorot_uniform", "nb_filter": 192, "nb_row": 7, "border_mode": "same", "W_regularizer": null, "activation": "relu", "b_constraint": null, "dim_ordering": "tf", "subsample": [1, 1]}, "name": "convolution2d_34", "class_name": "Convolution2D", "inbound_nodes": [[["batchnormalization_33", 0, 0]]]}, {"config": {"W_constraint": null, "bias": true, "trainable": true, "nb_col": 7, "b_regularizer": null, "activity_regularizer": null, "name": "convolution2d_39", "init": "glorot_uniform", "nb_filter": 192, "nb_row": 1, "border_mode": "same", "W_regularizer": null, "activation": "relu", "b_constraint": null, "dim_ordering": "tf", "subsample": [1, 1]}, "name": "convolution2d_39", "class_name": "Convolution2D", "inbound_nodes": [[["batchnormalization_38", 0, 0]]]}, {"config": {"W_constraint": null, "bias": true, "trainable": true, "nb_col": 1, "b_regularizer": null, "activity_regularizer": null, "name": "convolution2d_40", "init": "glorot_uniform", "nb_filter": 192, "nb_row": 1, "border_mode": "same", "W_regularizer": null, "activation": "relu", "b_constraint": null, "dim_ordering": "tf", "subsample": [1, 1]}, "name": "convolution2d_40", "class_name": "Convolution2D", "inbound_nodes": [[["averagepooling2d_4", 0, 0]]]}, {"config": {"gamma_regularizer": null, "epsilon": 0.001, "trainable": true, "momentum": 0.99, "axis": 3, "beta_regularizer": null, "name": "batchnormalization_31", "mode": 0}, "name": "batchnormalization_31", "class_name": "BatchNormalization", "inbound_nodes": [[["convolution2d_31", 0, 0]]]}, {"config": {"gamma_regularizer": null, "epsilon": 0.001, "trainable": true, "momentum": 0.99, "axis": 3, "beta_regularizer": null, "name": "batchnormalization_34", "mode": 0}, "name": "batchnormalization_34", "class_name": "BatchNormalization", "inbound_nodes": [[["convolution2d_34", 0, 0]]]}, {"config": {"gamma_regularizer": null, "epsilon": 0.001, "trainable": true, "momentum": 0.99, "axis": 3, "beta_regularizer": null, "name": "batchnormalization_39", "mode": 0}, "name": "batchnormalization_39", "class_name": "BatchNormalization", "inbound_nodes": [[["convolution2d_39", 0, 0]]]}, {"config": {"gamma_regularizer": null, "epsilon": 0.001, "trainable": true, "momentum": 0.99, "axis": 3, "beta_regularizer": null, "name": "batchnormalization_40", "mode": 0}, "name": "batchnormalization_40", "class_name": "BatchNormalization", "inbound_nodes": [[["convolution2d_40", 0, 0]]]}, {"config": {"concat_axis": 3, "output_mask_type": "raw", "mode": "concat", "mode_type": "raw", "arguments": {}, "name": "mixed4", "output_shape_type": "raw", "output_mask": null, "output_shape": null, "dot_axes": -1}, "name": "mixed4", "class_name": "Merge", "inbound_nodes": [[["batchnormalization_31", 0, 0], ["batchnormalization_34", 0, 0], ["batchnormalization_39", 0, 0], ["batchnormalization_40", 0, 0]]]}, {"config": {"W_constraint": null, "bias": true, "trainable": true, "nb_col": 1, "b_regularizer": null, "activity_regularizer": null, "name": "convolution2d_45", "init": "glorot_uniform", "nb_filter": 160, "nb_row": 1, "border_mode": "same", "W_regularizer": null, "activation": "relu", "b_constraint": null, "dim_ordering": "tf", "subsample": [1, 1]}, "name": "convolution2d_45", "class_name": "Convolution2D", "inbound_nodes": [[["mixed4", 0, 0]]]}, {"config": {"gamma_regularizer": null, "epsilon": 0.001, "trainable": true, "momentum": 0.99, "axis": 3, "beta_regularizer": null, "name": "batchnormalization_45", "mode": 0}, "name": "batchnormalization_45", "class_name": "BatchNormalization", "inbound_nodes": [[["convolution2d_45", 0, 0]]]}, {"config": {"W_constraint": null, "bias": true, "trainable": true, "nb_col": 1, "b_regularizer": null, "activity_regularizer": null, "name": "convolution2d_46", "init": "glorot_uniform", "nb_filter": 160, "nb_row": 7, "border_mode": "same", "W_regularizer": null, "activation": "relu", "b_constraint": null, "dim_ordering": "tf", "subsample": [1, 1]}, "name": "convolution2d_46", "class_name": "Convolution2D", "inbound_nodes": [[["batchnormalization_45", 0, 0]]]}, {"config": {"gamma_regularizer": null, "epsilon": 0.001, "trainable": true, "momentum": 0.99, "axis": 3, "beta_regularizer": null, "name": "batchnormalization_46", "mode": 0}, "name": "batchnormalization_46", "class_name": "BatchNormalization", "inbound_nodes": [[["convolution2d_46", 0, 0]]]}, {"config": {"W_constraint": null, "bias": true, "trainable": true, "nb_col": 1, "b_regularizer": null, "activity_regularizer": null, "name": "convolution2d_42", "init": "glorot_uniform", "nb_filter": 160, "nb_row": 1, "border_mode": "same", "W_regularizer": null, "activation": "relu", "b_constraint": null, "dim_ordering": "tf", "subsample": [1, 1]}, "name": "convolution2d_42", "class_name": "Convolution2D", "inbound_nodes": [[["mixed4", 0, 0]]]}, {"config": {"W_constraint": null, "bias": true, "trainable": true, "nb_col": 7, "b_regularizer": null, "activity_regularizer": null, "name": "convolution2d_47", "init": "glorot_uniform", "nb_filter": 160, "nb_row": 1, "border_mode": "same", "W_regularizer": null, "activation": "relu", "b_constraint": null, "dim_ordering": "tf", "subsample": [1, 1]}, "name": "convolution2d_47", "class_name": "Convolution2D", "inbound_nodes": [[["batchnormalization_46", 0, 0]]]}, {"config": {"gamma_regularizer": null, "epsilon": 0.001, "trainable": true, "momentum": 0.99, "axis": 3, "beta_regularizer": null, "name": "batchnormalization_42", "mode": 0}, "name": "batchnormalization_42", "class_name": "BatchNormalization", "inbound_nodes": [[["convolution2d_42", 0, 0]]]}, {"config": {"gamma_regularizer": null, "epsilon": 0.001, "trainable": true, "momentum": 0.99, "axis": 3, "beta_regularizer": null, "name": "batchnormalization_47", "mode": 0}, "name": "batchnormalization_47", "class_name": "BatchNormalization", "inbound_nodes": [[["convolution2d_47", 0, 0]]]}, {"config": {"W_constraint": null, "bias": true, "trainable": true, "nb_col": 7, "b_regularizer": null, "activity_regularizer": null, "name": "convolution2d_43", "init": "glorot_uniform", "nb_filter": 160, "nb_row": 1, "border_mode": "same", "W_regularizer": null, "activation": "relu", "b_constraint": null, "dim_ordering": "tf", "subsample": [1, 1]}, "name": "convolution2d_43", "class_name": "Convolution2D", "inbound_nodes": [[["batchnormalization_42", 0, 0]]]}, {"config": {"W_constraint": null, "bias": true, "trainable": true, "nb_col": 1, "b_regularizer": null, "activity_regularizer": null, "name": "convolution2d_48", "init": "glorot_uniform", "nb_filter": 160, "nb_row": 7, "border_mode": "same", "W_regularizer": null, "activation": "relu", "b_constraint": null, "dim_ordering": "tf", "subsample": [1, 1]}, "name": "convolution2d_48", "class_name": "Convolution2D", "inbound_nodes": [[["batchnormalization_47", 0, 0]]]}, {"config": {"gamma_regularizer": null, "epsilon": 0.001, "trainable": true, "momentum": 0.99, "axis": 3, "beta_regularizer": null, "name": "batchnormalization_43", "mode": 0}, "name": "batchnormalization_43", "class_name": "BatchNormalization", "inbound_nodes": [[["convolution2d_43", 0, 0]]]}, {"config": {"gamma_regularizer": null, "epsilon": 0.001, "trainable": true, "momentum": 0.99, "axis": 3, "beta_regularizer": null, "name": "batchnormalization_48", "mode": 0}, "name": "batchnormalization_48", "class_name": "BatchNormalization", "inbound_nodes": [[["convolution2d_48", 0, 0]]]}, {"config": {"strides": [1, 1], "border_mode": "same", "name": "averagepooling2d_5", "pool_size": [3, 3], "trainable": true, "dim_ordering": "tf"}, "name": "averagepooling2d_5", "class_name": "AveragePooling2D", "inbound_nodes": [[["mixed4", 0, 0]]]}, {"config": {"W_constraint": null, "bias": true, "trainable": true, "nb_col": 1, "b_regularizer": null, "activity_regularizer": null, "name": "convolution2d_41", "init": "glorot_uniform", "nb_filter": 192, "nb_row": 1, "border_mode": "same", "W_regularizer": null, "activation": "relu", "b_constraint": null, "dim_ordering": "tf", "subsample": [1, 1]}, "name": "convolution2d_41", "class_name": "Convolution2D", "inbound_nodes": [[["mixed4", 0, 0]]]}, {"config": {"W_constraint": null, "bias": true, "trainable": true, "nb_col": 1, "b_regularizer": null, "activity_regularizer": null, "name": "convolution2d_44", "init": "glorot_uniform", "nb_filter": 192, "nb_row": 7, "border_mode": "same", "W_regularizer": null, "activation": "relu", "b_constraint": null, "dim_ordering": "tf", "subsample": [1, 1]}, "name": "convolution2d_44", "class_name": "Convolution2D", "inbound_nodes": [[["batchnormalization_43", 0, 0]]]}, {"config": {"W_constraint": null, "bias": true, "trainable": true, "nb_col": 7, "b_regularizer": null, "activity_regularizer": null, "name": "convolution2d_49", "init": "glorot_uniform", "nb_filter": 192, "nb_row": 1, "border_mode": "same", "W_regularizer": null, "activation": "relu", "b_constraint": null, "dim_ordering": "tf", "subsample": [1, 1]}, "name": "convolution2d_49", "class_name": "Convolution2D", "inbound_nodes": [[["batchnormalization_48", 0, 0]]]}, {"config": {"W_constraint": null, "bias": true, "trainable": true, "nb_col": 1, "b_regularizer": null, "activity_regularizer": null, "name": "convolution2d_50", "init": "glorot_uniform", "nb_filter": 192, "nb_row": 1, "border_mode": "same", "W_regularizer": null, "activation": "relu", "b_constraint": null, "dim_ordering": "tf", "subsample": [1, 1]}, "name": "convolution2d_50", "class_name": "Convolution2D", "inbound_nodes": [[["averagepooling2d_5", 0, 0]]]}, {"config": {"gamma_regularizer": null, "epsilon": 0.001, "trainable": true, "momentum": 0.99, "axis": 3, "beta_regularizer": null, "name": "batchnormalization_41", "mode": 0}, "name": "batchnormalization_41", "class_name": "BatchNormalization", "inbound_nodes": [[["convolution2d_41", 0, 0]]]}, {"config": {"gamma_regularizer": null, "epsilon": 0.001, "trainable": true, "momentum": 0.99, "axis": 3, "beta_regularizer": null, "name": "batchnormalization_44", "mode": 0}, "name": "batchnormalization_44", "class_name": "BatchNormalization", "inbound_nodes": [[["convolution2d_44", 0, 0]]]}, {"config": {"gamma_regularizer": null, "epsilon": 0.001, "trainable": true, "momentum": 0.99, "axis": 3, "beta_regularizer": null, "name": "batchnormalization_49", "mode": 0}, "name": "batchnormalization_49", "class_name": "BatchNormalization", "inbound_nodes": [[["convolution2d_49", 0, 0]]]}, {"config": {"gamma_regularizer": null, "epsilon": 0.001, "trainable": true, "momentum": 0.99, "axis": 3, "beta_regularizer": null, "name": "batchnormalization_50", "mode": 0}, "name": "batchnormalization_50", "class_name": "BatchNormalization", "inbound_nodes": [[["convolution2d_50", 0, 0]]]}, {"config": {"concat_axis": 3, "output_mask_type": "raw", "mode": "concat", "mode_type": "raw", "arguments": {}, "name": "mixed5", "output_shape_type": "raw", "output_mask": null, "output_shape": null, "dot_axes": -1}, "name": "mixed5", "class_name": "Merge", "inbound_nodes": [[["batchnormalization_41", 0, 0], ["batchnormalization_44", 0, 0], ["batchnormalization_49", 0, 0], ["batchnormalization_50", 0, 0]]]}, {"config": {"W_constraint": null, "bias": true, "trainable": true, "nb_col": 1, "b_regularizer": null, "activity_regularizer": null, "name": "convolution2d_55", "init": "glorot_uniform", "nb_filter": 160, "nb_row": 1, "border_mode": "same", "W_regularizer": null, "activation": "relu", "b_constraint": null, "dim_ordering": "tf", "subsample": [1, 1]}, "name": "convolution2d_55", "class_name": "Convolution2D", "inbound_nodes": [[["mixed5", 0, 0]]]}, {"config": {"gamma_regularizer": null, "epsilon": 0.001, "trainable": true, "momentum": 0.99, "axis": 3, "beta_regularizer": null, "name": "batchnormalization_55", "mode": 0}, "name": "batchnormalization_55", "class_name": "BatchNormalization", "inbound_nodes": [[["convolution2d_55", 0, 0]]]}, {"config": {"W_constraint": null, "bias": true, "trainable": true, "nb_col": 1, "b_regularizer": null, "activity_regularizer": null, "name": "convolution2d_56", "init": "glorot_uniform", "nb_filter": 160, "nb_row": 7, "border_mode": "same", "W_regularizer": null, "activation": "relu", "b_constraint": null, "dim_ordering": "tf", "subsample": [1, 1]}, "name": "convolution2d_56", "class_name": "Convolution2D", "inbound_nodes": [[["batchnormalization_55", 0, 0]]]}, {"config": {"gamma_regularizer": null, "epsilon": 0.001, "trainable": true, "momentum": 0.99, "axis": 3, "beta_regularizer": null, "name": "batchnormalization_56", "mode": 0}, "name": "batchnormalization_56", "class_name": "BatchNormalization", "inbound_nodes": [[["convolution2d_56", 0, 0]]]}, {"config": {"W_constraint": null, "bias": true, "trainable": true, "nb_col": 1, "b_regularizer": null, "activity_regularizer": null, "name": "convolution2d_52", "init": "glorot_uniform", "nb_filter": 160, "nb_row": 1, "border_mode": "same", "W_regularizer": null, "activation": "relu", "b_constraint": null, "dim_ordering": "tf", "subsample": [1, 1]}, "name": "convolution2d_52", "class_name": "Convolution2D", "inbound_nodes": [[["mixed5", 0, 0]]]}, {"config": {"W_constraint": null, "bias": true, "trainable": true, "nb_col": 7, "b_regularizer": null, "activity_regularizer": null, "name": "convolution2d_57", "init": "glorot_uniform", "nb_filter": 160, "nb_row": 1, "border_mode": "same", "W_regularizer": null, "activation": "relu", "b_constraint": null, "dim_ordering": "tf", "subsample": [1, 1]}, "name": "convolution2d_57", "class_name": "Convolution2D", "inbound_nodes": [[["batchnormalization_56", 0, 0]]]}, {"config": {"gamma_regularizer": null, "epsilon": 0.001, "trainable": true, "momentum": 0.99, "axis": 3, "beta_regularizer": null, "name": "batchnormalization_52", "mode": 0}, "name": "batchnormalization_52", "class_name": "BatchNormalization", "inbound_nodes": [[["convolution2d_52", 0, 0]]]}, {"config": {"gamma_regularizer": null, "epsilon": 0.001, "trainable": true, "momentum": 0.99, "axis": 3, "beta_regularizer": null, "name": "batchnormalization_57", "mode": 0}, "name": "batchnormalization_57", "class_name": "BatchNormalization", "inbound_nodes": [[["convolution2d_57", 0, 0]]]}, {"config": {"W_constraint": null, "bias": true, "trainable": true, "nb_col": 7, "b_regularizer": null, "activity_regularizer": null, "name": "convolution2d_53", "init": "glorot_uniform", "nb_filter": 160, "nb_row": 1, "border_mode": "same", "W_regularizer": null, "activation": "relu", "b_constraint": null, "dim_ordering": "tf", "subsample": [1, 1]}, "name": "convolution2d_53", "class_name": "Convolution2D", "inbound_nodes": [[["batchnormalization_52", 0, 0]]]}, {"config": {"W_constraint": null, "bias": true, "trainable": true, "nb_col": 1, "b_regularizer": null, "activity_regularizer": null, "name": "convolution2d_58", "init": "glorot_uniform", "nb_filter": 160, "nb_row": 7, "border_mode": "same", "W_regularizer": null, "activation": "relu", "b_constraint": null, "dim_ordering": "tf", "subsample": [1, 1]}, "name": "convolution2d_58", "class_name": "Convolution2D", "inbound_nodes": [[["batchnormalization_57", 0, 0]]]}, {"config": {"gamma_regularizer": null, "epsilon": 0.001, "trainable": true, "momentum": 0.99, "axis": 3, "beta_regularizer": null, "name": "batchnormalization_53", "mode": 0}, "name": "batchnormalization_53", "class_name": "BatchNormalization", "inbound_nodes": [[["convolution2d_53", 0, 0]]]}, {"config": {"gamma_regularizer": null, "epsilon": 0.001, "trainable": true, "momentum": 0.99, "axis": 3, "beta_regularizer": null, "name": "batchnormalization_58", "mode": 0}, "name": "batchnormalization_58", "class_name": "BatchNormalization", "inbound_nodes": [[["convolution2d_58", 0, 0]]]}, {"config": {"strides": [1, 1], "border_mode": "same", "name": "averagepooling2d_6", "pool_size": [3, 3], "trainable": true, "dim_ordering": "tf"}, "name": "averagepooling2d_6", "class_name": "AveragePooling2D", "inbound_nodes": [[["mixed5", 0, 0]]]}, {"config": {"W_constraint": null, "bias": true, "trainable": true, "nb_col": 1, "b_regularizer": null, "activity_regularizer": null, "name": "convolution2d_51", "init": "glorot_uniform", "nb_filter": 192, "nb_row": 1, "border_mode": "same", "W_regularizer": null, "activation": "relu", "b_constraint": null, "dim_ordering": "tf", "subsample": [1, 1]}, "name": "convolution2d_51", "class_name": "Convolution2D", "inbound_nodes": [[["mixed5", 0, 0]]]}, {"config": {"W_constraint": null, "bias": true, "trainable": true, "nb_col": 1, "b_regularizer": null, "activity_regularizer": null, "name": "convolution2d_54", "init": "glorot_uniform", "nb_filter": 192, "nb_row": 7, "border_mode": "same", "W_regularizer": null, "activation": "relu", "b_constraint": null, "dim_ordering": "tf", "subsample": [1, 1]}, "name": "convolution2d_54", "class_name": "Convolution2D", "inbound_nodes": [[["batchnormalization_53", 0, 0]]]}, {"config": {"W_constraint": null, "bias": true, "trainable": true, "nb_col": 7, "b_regularizer": null, "activity_regularizer": null, "name": "convolution2d_59", "init": "glorot_uniform", "nb_filter": 192, "nb_row": 1, "border_mode": "same", "W_regularizer": null, "activation": "relu", "b_constraint": null, "dim_ordering": "tf", "subsample": [1, 1]}, "name": "convolution2d_59", "class_name": "Convolution2D", "inbound_nodes": [[["batchnormalization_58", 0, 0]]]}, {"config": {"W_constraint": null, "bias": true, "trainable": true, "nb_col": 1, "b_regularizer": null, "activity_regularizer": null, "name": "convolution2d_60", "init": "glorot_uniform", "nb_filter": 192, "nb_row": 1, "border_mode": "same", "W_regularizer": null, "activation": "relu", "b_constraint": null, "dim_ordering": "tf", "subsample": [1, 1]}, "name": "convolution2d_60", "class_name": "Convolution2D", "inbound_nodes": [[["averagepooling2d_6", 0, 0]]]}, {"config": {"gamma_regularizer": null, "epsilon": 0.001, "trainable": true, "momentum": 0.99, "axis": 3, "beta_regularizer": null, "name": "batchnormalization_51", "mode": 0}, "name": "batchnormalization_51", "class_name": "BatchNormalization", "inbound_nodes": [[["convolution2d_51", 0, 0]]]}, {"config": {"gamma_regularizer": null, "epsilon": 0.001, "trainable": true, "momentum": 0.99, "axis": 3, "beta_regularizer": null, "name": "batchnormalization_54", "mode": 0}, "name": "batchnormalization_54", "class_name": "BatchNormalization", "inbound_nodes": [[["convolution2d_54", 0, 0]]]}, {"config": {"gamma_regularizer": null, "epsilon": 0.001, "trainable": true, "momentum": 0.99, "axis": 3, "beta_regularizer": null, "name": "batchnormalization_59", "mode": 0}, "name": "batchnormalization_59", "class_name": "BatchNormalization", "inbound_nodes": [[["convolution2d_59", 0, 0]]]}, {"config": {"gamma_regularizer": null, "epsilon": 0.001, "trainable": true, "momentum": 0.99, "axis": 3, "beta_regularizer": null, "name": "batchnormalization_60", "mode": 0}, "name": "batchnormalization_60", "class_name": "BatchNormalization", "inbound_nodes": [[["convolution2d_60", 0, 0]]]}, {"config": {"concat_axis": 3, "output_mask_type": "raw", "mode": "concat", "mode_type": "raw", "arguments": {}, "name": "mixed6", "output_shape_type": "raw", "output_mask": null, "output_shape": null, "dot_axes": -1}, "name": "mixed6", "class_name": "Merge", "inbound_nodes": [[["batchnormalization_51", 0, 0], ["batchnormalization_54", 0, 0], ["batchnormalization_59", 0, 0], ["batchnormalization_60", 0, 0]]]}, {"config": {"W_constraint": null, "bias": true, "trainable": true, "nb_col": 1, "b_regularizer": null, "activity_regularizer": null, "name": "convolution2d_65", "init": "glorot_uniform", "nb_filter": 160, "nb_row": 1, "border_mode": "same", "W_regularizer": null, "activation": "relu", "b_constraint": null, "dim_ordering": "tf", "subsample": [1, 1]}, "name": "convolution2d_65", "class_name": "Convolution2D", "inbound_nodes": [[["mixed6", 0, 0]]]}, {"config": {"gamma_regularizer": null, "epsilon": 0.001, "trainable": true, "momentum": 0.99, "axis": 3, "beta_regularizer": null, "name": "batchnormalization_65", "mode": 0}, "name": "batchnormalization_65", "class_name": "BatchNormalization", "inbound_nodes": [[["convolution2d_65", 0, 0]]]}, {"config": {"W_constraint": null, "bias": true, "trainable": true, "nb_col": 1, "b_regularizer": null, "activity_regularizer": null, "name": "convolution2d_66", "init": "glorot_uniform", "nb_filter": 192, "nb_row": 7, "border_mode": "same", "W_regularizer": null, "activation": "relu", "b_constraint": null, "dim_ordering": "tf", "subsample": [1, 1]}, "name": "convolution2d_66", "class_name": "Convolution2D", "inbound_nodes": [[["batchnormalization_65", 0, 0]]]}, {"config": {"gamma_regularizer": null, "epsilon": 0.001, "trainable": true, "momentum": 0.99, "axis": 3, "beta_regularizer": null, "name": "batchnormalization_66", "mode": 0}, "name": "batchnormalization_66", "class_name": "BatchNormalization", "inbound_nodes": [[["convolution2d_66", 0, 0]]]}, {"config": {"W_constraint": null, "bias": true, "trainable": true, "nb_col": 1, "b_regularizer": null, "activity_regularizer": null, "name": "convolution2d_62", "init": "glorot_uniform", "nb_filter": 192, "nb_row": 1, "border_mode": "same", "W_regularizer": null, "activation": "relu", "b_constraint": null, "dim_ordering": "tf", "subsample": [1, 1]}, "name": "convolution2d_62", "class_name": "Convolution2D", "inbound_nodes": [[["mixed6", 0, 0]]]}, {"config": {"W_constraint": null, "bias": true, "trainable": true, "nb_col": 7, "b_regularizer": null, "activity_regularizer": null, "name": "convolution2d_67", "init": "glorot_uniform", "nb_filter": 192, "nb_row": 1, "border_mode": "same", "W_regularizer": null, "activation": "relu", "b_constraint": null, "dim_ordering": "tf", "subsample": [1, 1]}, "name": "convolution2d_67", "class_name": "Convolution2D", "inbound_nodes": [[["batchnormalization_66", 0, 0]]]}, {"config": {"gamma_regularizer": null, "epsilon": 0.001, "trainable": true, "momentum": 0.99, "axis": 3, "beta_regularizer": null, "name": "batchnormalization_62", "mode": 0}, "name": "batchnormalization_62", "class_name": "BatchNormalization", "inbound_nodes": [[["convolution2d_62", 0, 0]]]}, {"config": {"gamma_regularizer": null, "epsilon": 0.001, "trainable": true, "momentum": 0.99, "axis": 3, "beta_regularizer": null, "name": "batchnormalization_67", "mode": 0}, "name": "batchnormalization_67", "class_name": "BatchNormalization", "inbound_nodes": [[["convolution2d_67", 0, 0]]]}, {"config": {"W_constraint": null, "bias": true, "trainable": true, "nb_col": 7, "b_regularizer": null, "activity_regularizer": null, "name": "convolution2d_63", "init": "glorot_uniform", "nb_filter": 192, "nb_row": 1, "border_mode": "same", "W_regularizer": null, "activation": "relu", "b_constraint": null, "dim_ordering": "tf", "subsample": [1, 1]}, "name": "convolution2d_63", "class_name": "Convolution2D", "inbound_nodes": [[["batchnormalization_62", 0, 0]]]}, {"config": {"W_constraint": null, "bias": true, "trainable": true, "nb_col": 1, "b_regularizer": null, "activity_regularizer": null, "name": "convolution2d_68", "init": "glorot_uniform", "nb_filter": 192, "nb_row": 7, "border_mode": "same", "W_regularizer": null, "activation": "relu", "b_constraint": null, "dim_ordering": "tf", "subsample": [1, 1]}, "name": "convolution2d_68", "class_name": "Convolution2D", "inbound_nodes": [[["batchnormalization_67", 0, 0]]]}, {"config": {"gamma_regularizer": null, "epsilon": 0.001, "trainable": true, "momentum": 0.99, "axis": 3, "beta_regularizer": null, "name": "batchnormalization_63", "mode": 0}, "name": "batchnormalization_63", "class_name": "BatchNormalization", "inbound_nodes": [[["convolution2d_63", 0, 0]]]}, {"config": {"gamma_regularizer": null, "epsilon": 0.001, "trainable": true, "momentum": 0.99, "axis": 3, "beta_regularizer": null, "name": "batchnormalization_68", "mode": 0}, "name": "batchnormalization_68", "class_name": "BatchNormalization", "inbound_nodes": [[["convolution2d_68", 0, 0]]]}, {"config": {"strides": [1, 1], "border_mode": "same", "name": "averagepooling2d_7", "pool_size": [3, 3], "trainable": true, "dim_ordering": "tf"}, "name": "averagepooling2d_7", "class_name": "AveragePooling2D", "inbound_nodes": [[["mixed6", 0, 0]]]}, {"config": {"W_constraint": null, "bias": true, "trainable": true, "nb_col": 1, "b_regularizer": null, "activity_regularizer": null, "name": "convolution2d_61", "init": "glorot_uniform", "nb_filter": 192, "nb_row": 1, "border_mode": "same", "W_regularizer": null, "activation": "relu", "b_constraint": null, "dim_ordering": "tf", "subsample": [1, 1]}, "name": "convolution2d_61", "class_name": "Convolution2D", "inbound_nodes": [[["mixed6", 0, 0]]]}, {"config": {"W_constraint": null, "bias": true, "trainable": true, "nb_col": 1, "b_regularizer": null, "activity_regularizer": null, "name": "convolution2d_64", "init": "glorot_uniform", "nb_filter": 192, "nb_row": 7, "border_mode": "same", "W_regularizer": null, "activation": "relu", "b_constraint": null, "dim_ordering": "tf", "subsample": [1, 1]}, "name": "convolution2d_64", "class_name": "Convolution2D", "inbound_nodes": [[["batchnormalization_63", 0, 0]]]}, {"config": {"W_constraint": null, "bias": true, "trainable": true, "nb_col": 7, "b_regularizer": null, "activity_regularizer": null, "name": "convolution2d_69", "init": "glorot_uniform", "nb_filter": 192, "nb_row": 1, "border_mode": "same", "W_regularizer": null, "activation": "relu", "b_constraint": null, "dim_ordering": "tf", "subsample": [1, 1]}, "name": "convolution2d_69", "class_name": "Convolution2D", "inbound_nodes": [[["batchnormalization_68", 0, 0]]]}, {"config": {"W_constraint": null, "bias": true, "trainable": true, "nb_col": 1, "b_regularizer": null, "activity_regularizer": null, "name": "convolution2d_70", "init": "glorot_uniform", "nb_filter": 192, "nb_row": 1, "border_mode": "same", "W_regularizer": null, "activation": "relu", "b_constraint": null, "dim_ordering": "tf", "subsample": [1, 1]}, "name": "convolution2d_70", "class_name": "Convolution2D", "inbound_nodes": [[["averagepooling2d_7", 0, 0]]]}, {"config": {"gamma_regularizer": null, "epsilon": 0.001, "trainable": true, "momentum": 0.99, "axis": 3, "beta_regularizer": null, "name": "batchnormalization_61", "mode": 0}, "name": "batchnormalization_61", "class_name": "BatchNormalization", "inbound_nodes": [[["convolution2d_61", 0, 0]]]}, {"config": {"gamma_regularizer": null, "epsilon": 0.001, "trainable": true, "momentum": 0.99, "axis": 3, "beta_regularizer": null, "name": "batchnormalization_64", "mode": 0}, "name": "batchnormalization_64", "class_name": "BatchNormalization", "inbound_nodes": [[["convolution2d_64", 0, 0]]]}, {"config": {"gamma_regularizer": null, "epsilon": 0.001, "trainable": true, "momentum": 0.99, "axis": 3, "beta_regularizer": null, "name": "batchnormalization_69", "mode": 0}, "name": "batchnormalization_69", "class_name": "BatchNormalization", "inbound_nodes": [[["convolution2d_69", 0, 0]]]}, {"config": {"gamma_regularizer": null, "epsilon": 0.001, "trainable": true, "momentum": 0.99, "axis": 3, "beta_regularizer": null, "name": "batchnormalization_70", "mode": 0}, "name": "batchnormalization_70", "class_name": "BatchNormalization", "inbound_nodes": [[["convolution2d_70", 0, 0]]]}, {"config": {"concat_axis": 3, "output_mask_type": "raw", "mode": "concat", "mode_type": "raw", "arguments": {}, "name": "mixed7", "output_shape_type": "raw", "output_mask": null, "output_shape": null, "dot_axes": -1}, "name": "mixed7", "class_name": "Merge", "inbound_nodes": [[["batchnormalization_61", 0, 0], ["batchnormalization_64", 0, 0], ["batchnormalization_69", 0, 0], ["batchnormalization_70", 0, 0]]]}, {"config": {"W_constraint": null, "bias": true, "trainable": true, "nb_col": 1, "b_regularizer": null, "activity_regularizer": null, "name": "convolution2d_73", "init": "glorot_uniform", "nb_filter": 192, "nb_row": 1, "border_mode": "same", "W_regularizer": null, "activation": "relu", "b_constraint": null, "dim_ordering": "tf", "subsample": [1, 1]}, "name": "convolution2d_73", "class_name": "Convolution2D", "inbound_nodes": [[["mixed7", 0, 0]]]}, {"config": {"gamma_regularizer": null, "epsilon": 0.001, "trainable": true, "momentum": 0.99, "axis": 3, "beta_regularizer": null, "name": "batchnormalization_73", "mode": 0}, "name": "batchnormalization_73", "class_name": "BatchNormalization", "inbound_nodes": [[["convolution2d_73", 0, 0]]]}, {"config": {"W_constraint": null, "bias": true, "trainable": true, "nb_col": 7, "b_regularizer": null, "activity_regularizer": null, "name": "convolution2d_74", "init": "glorot_uniform", "nb_filter": 192, "nb_row": 1, "border_mode": "same", "W_regularizer": null, "activation": "relu", "b_constraint": null, "dim_ordering": "tf", "subsample": [1, 1]}, "name": "convolution2d_74", "class_name": "Convolution2D", "inbound_nodes": [[["batchnormalization_73", 0, 0]]]}, {"config": {"gamma_regularizer": null, "epsilon": 0.001, "trainable": true, "momentum": 0.99, "axis": 3, "beta_regularizer": null, "name": "batchnormalization_74", "mode": 0}, "name": "batchnormalization_74", "class_name": "BatchNormalization", "inbound_nodes": [[["convolution2d_74", 0, 0]]]}, {"config": {"W_constraint": null, "bias": true, "trainable": true, "nb_col": 1, "b_regularizer": null, "activity_regularizer": null, "name": "convolution2d_71", "init": "glorot_uniform", "nb_filter": 192, "nb_row": 1, "border_mode": "same", "W_regularizer": null, "activation": "relu", "b_constraint": null, "dim_ordering": "tf", "subsample": [1, 1]}, "name": "convolution2d_71", "class_name": "Convolution2D", "inbound_nodes": [[["mixed7", 0, 0]]]}, {"config": {"W_constraint": null, "bias": true, "trainable": true, "nb_col": 1, "b_regularizer": null, "activity_regularizer": null, "name": "convolution2d_75", "init": "glorot_uniform", "nb_filter": 192, "nb_row": 7, "border_mode": "same", "W_regularizer": null, "activation": "relu", "b_constraint": null, "dim_ordering": "tf", "subsample": [1, 1]}, "name": "convolution2d_75", "class_name": "Convolution2D", "inbound_nodes": [[["batchnormalization_74", 0, 0]]]}, {"config": {"gamma_regularizer": null, "epsilon": 0.001, "trainable": true, "momentum": 0.99, "axis": 3, "beta_regularizer": null, "name": "batchnormalization_71", "mode": 0}, "name": "batchnormalization_71", "class_name": "BatchNormalization", "inbound_nodes": [[["convolution2d_71", 0, 0]]]}, {"config": {"gamma_regularizer": null, "epsilon": 0.001, "trainable": true, "momentum": 0.99, "axis": 3, "beta_regularizer": null, "name": "batchnormalization_75", "mode": 0}, "name": "batchnormalization_75", "class_name": "BatchNormalization", "inbound_nodes": [[["convolution2d_75", 0, 0]]]}, {"config": {"W_constraint": null, "bias": true, "trainable": true, "nb_col": 3, "b_regularizer": null, "activity_regularizer": null, "name": "convolution2d_72", "init": "glorot_uniform", "nb_filter": 320, "nb_row": 3, "border_mode": "valid", "W_regularizer": null, "activation": "relu", "b_constraint": null, "dim_ordering": "tf", "subsample": [2, 2]}, "name": "convolution2d_72", "class_name": "Convolution2D", "inbound_nodes": [[["batchnormalization_71", 0, 0]]]}, {"config": {"W_constraint": null, "bias": true, "trainable": true, "nb_col": 3, "b_regularizer": null, "activity_regularizer": null, "name": "convolution2d_76", "init": "glorot_uniform", "nb_filter": 192, "nb_row": 3, "border_mode": "valid", "W_regularizer": null, "activation": "relu", "b_constraint": null, "dim_ordering": "tf", "subsample": [2, 2]}, "name": "convolution2d_76", "class_name": "Convolution2D", "inbound_nodes": [[["batchnormalization_75", 0, 0]]]}, {"config": {"gamma_regularizer": null, "epsilon": 0.001, "trainable": true, "momentum": 0.99, "axis": 3, "beta_regularizer": null, "name": "batchnormalization_72", "mode": 0}, "name": "batchnormalization_72", "class_name": "BatchNormalization", "inbound_nodes": [[["convolution2d_72", 0, 0]]]}, {"config": {"gamma_regularizer": null, "epsilon": 0.001, "trainable": true, "momentum": 0.99, "axis": 3, "beta_regularizer": null, "name": "batchnormalization_76", "mode": 0}, "name": "batchnormalization_76", "class_name": "BatchNormalization", "inbound_nodes": [[["convolution2d_76", 0, 0]]]}, {"config": {"strides": [2, 2], "border_mode": "valid", "name": "averagepooling2d_8", "pool_size": [3, 3], "trainable": true, "dim_ordering": "tf"}, "name": "averagepooling2d_8", "class_name": "AveragePooling2D", "inbound_nodes": [[["mixed7", 0, 0]]]}, {"config": {"concat_axis": 3, "output_mask_type": "raw", "mode": "concat", "mode_type": "raw", "arguments": {}, "name": "mixed8", "output_shape_type": "raw", "output_mask": null, "output_shape": null, "dot_axes": -1}, "name": "mixed8", "class_name": "Merge", "inbound_nodes": [[["batchnormalization_72", 0, 0], ["batchnormalization_76", 0, 0], ["averagepooling2d_8", 0, 0]]]}, {"config": {"W_constraint": null, "bias": true, "trainable": true, "nb_col": 1, "b_regularizer": null, "activity_regularizer": null, "name": "convolution2d_81", "init": "glorot_uniform", "nb_filter": 448, "nb_row": 1, "border_mode": "same", "W_regularizer": null, "activation": "relu", "b_constraint": null, "dim_ordering": "tf", "subsample": [1, 1]}, "name": "convolution2d_81", "class_name": "Convolution2D", "inbound_nodes": [[["mixed8", 0, 0]]]}, {"config": {"gamma_regularizer": null, "epsilon": 0.001, "trainable": true, "momentum": 0.99, "axis": 3, "beta_regularizer": null, "name": "batchnormalization_81", "mode": 0}, "name": "batchnormalization_81", "class_name": "BatchNormalization", "inbound_nodes": [[["convolution2d_81", 0, 0]]]}, {"config": {"W_constraint": null, "bias": true, "trainable": true, "nb_col": 1, "b_regularizer": null, "activity_regularizer": null, "name": "convolution2d_78", "init": "glorot_uniform", "nb_filter": 384, "nb_row": 1, "border_mode": "same", "W_regularizer": null, "activation": "relu", "b_constraint": null, "dim_ordering": "tf", "subsample": [1, 1]}, "name": "convolution2d_78", "class_name": "Convolution2D", "inbound_nodes": [[["mixed8", 0, 0]]]}, {"config": {"W_constraint": null, "bias": true, "trainable": true, "nb_col": 3, "b_regularizer": null, "activity_regularizer": null, "name": "convolution2d_82", "init": "glorot_uniform", "nb_filter": 384, "nb_row": 3, "border_mode": "same", "W_regularizer": null, "activation": "relu", "b_constraint": null, "dim_ordering": "tf", "subsample": [1, 1]}, "name": "convolution2d_82", "class_name": "Convolution2D", "inbound_nodes": [[["batchnormalization_81", 0, 0]]]}, {"config": {"gamma_regularizer": null, "epsilon": 0.001, "trainable": true, "momentum": 0.99, "axis": 3, "beta_regularizer": null, "name": "batchnormalization_78", "mode": 0}, "name": "batchnormalization_78", "class_name": "BatchNormalization", "inbound_nodes": [[["convolution2d_78", 0, 0]]]}, {"config": {"gamma_regularizer": null, "epsilon": 0.001, "trainable": true, "momentum": 0.99, "axis": 3, "beta_regularizer": null, "name": "batchnormalization_82", "mode": 0}, "name": "batchnormalization_82", "class_name": "BatchNormalization", "inbound_nodes": [[["convolution2d_82", 0, 0]]]}, {"config": {"W_constraint": null, "bias": true, "trainable": true, "nb_col": 3, "b_regularizer": null, "activity_regularizer": null, "name": "convolution2d_79", "init": "glorot_uniform", "nb_filter": 384, "nb_row": 1, "border_mode": "same", "W_regularizer": null, "activation": "relu", "b_constraint": null, "dim_ordering": "tf", "subsample": [1, 1]}, "name": "convolution2d_79", "class_name": "Convolution2D", "inbound_nodes": [[["batchnormalization_78", 0, 0]]]}, {"config": {"W_constraint": null, "bias": true, "trainable": true, "nb_col": 1, "b_regularizer": null, "activity_regularizer": null, "name": "convolution2d_80", "init": "glorot_uniform", "nb_filter": 384, "nb_row": 3, "border_mode": "same", "W_regularizer": null, "activation": "relu", "b_constraint": null, "dim_ordering": "tf", "subsample": [1, 1]}, "name": "convolution2d_80", "class_name": "Convolution2D", "inbound_nodes": [[["batchnormalization_78", 0, 0]]]}, {"config": {"W_constraint": null, "bias": true, "trainable": true, "nb_col": 3, "b_regularizer": null, "activity_regularizer": null, "name": "convolution2d_83", "init": "glorot_uniform", "nb_filter": 384, "nb_row": 1, "border_mode": "same", "W_regularizer": null, "activation": "relu", "b_constraint": null, "dim_ordering": "tf", "subsample": [1, 1]}, "name": "convolution2d_83", "class_name": "Convolution2D", "inbound_nodes": [[["batchnormalization_82", 0, 0]]]}, {"config": {"W_constraint": null, "bias": true, "trainable": true, "nb_col": 1, "b_regularizer": null, "activity_regularizer": null, "name": "convolution2d_84", "init": "glorot_uniform", "nb_filter": 384, "nb_row": 3, "border_mode": "same", "W_regularizer": null, "activation": "relu", "b_constraint": null, "dim_ordering": "tf", "subsample": [1, 1]}, "name": "convolution2d_84", "class_name": "Convolution2D", "inbound_nodes": [[["batchnormalization_82", 0, 0]]]}, {"config": {"strides": [1, 1], "border_mode": "same", "name": "averagepooling2d_9", "pool_size": [3, 3], "trainable": true, "dim_ordering": "tf"}, "name": "averagepooling2d_9", "class_name": "AveragePooling2D", "inbound_nodes": [[["mixed8", 0, 0]]]}, {"config": {"W_constraint": null, "bias": true, "trainable": true, "nb_col": 1, "b_regularizer": null, "activity_regularizer": null, "name": "convolution2d_77", "init": "glorot_uniform", "nb_filter": 320, "nb_row": 1, "border_mode": "same", "W_regularizer": null, "activation": "relu", "b_constraint": null, "dim_ordering": "tf", "subsample": [1, 1]}, "name": "convolution2d_77", "class_name": "Convolution2D", "inbound_nodes": [[["mixed8", 0, 0]]]}, {"config": {"gamma_regularizer": null, "epsilon": 0.001, "trainable": true, "momentum": 0.99, "axis": 3, "beta_regularizer": null, "name": "batchnormalization_79", "mode": 0}, "name": "batchnormalization_79", "class_name": "BatchNormalization", "inbound_nodes": [[["convolution2d_79", 0, 0]]]}, {"config": {"gamma_regularizer": null, "epsilon": 0.001, "trainable": true, "momentum": 0.99, "axis": 3, "beta_regularizer": null, "name": "batchnormalization_80", "mode": 0}, "name": "batchnormalization_80", "class_name": "BatchNormalization", "inbound_nodes": [[["convolution2d_80", 0, 0]]]}, {"config": {"gamma_regularizer": null, "epsilon": 0.001, "trainable": true, "momentum": 0.99, "axis": 3, "beta_regularizer": null, "name": "batchnormalization_83", "mode": 0}, "name": "batchnormalization_83", "class_name": "BatchNormalization", "inbound_nodes": [[["convolution2d_83", 0, 0]]]}, {"config": {"gamma_regularizer": null, "epsilon": 0.001, "trainable": true, "momentum": 0.99, "axis": 3, "beta_regularizer": null, "name": "batchnormalization_84", "mode": 0}, "name": "batchnormalization_84", "class_name": "BatchNormalization", "inbound_nodes": [[["convolution2d_84", 0, 0]]]}, {"config": {"W_constraint": null, "bias": true, "trainable": true, "nb_col": 1, "b_regularizer": null, "activity_regularizer": null, "name": "convolution2d_85", "init": "glorot_uniform", "nb_filter": 192, "nb_row": 1, "border_mode": "same", "W_regularizer": null, "activation": "relu", "b_constraint": null, "dim_ordering": "tf", "subsample": [1, 1]}, "name": "convolution2d_85", "class_name": "Convolution2D", "inbound_nodes": [[["averagepooling2d_9", 0, 0]]]}, {"config": {"gamma_regularizer": null, "epsilon": 0.001, "trainable": true, "momentum": 0.99, "axis": 3, "beta_regularizer": null, "name": "batchnormalization_77", "mode": 0}, "name": "batchnormalization_77", "class_name": "BatchNormalization", "inbound_nodes": [[["convolution2d_77", 0, 0]]]}, {"config": {"concat_axis": 3, "output_mask_type": "raw", "mode": "concat", "mode_type": "raw", "arguments": {}, "name": "mixed9_0", "output_shape_type": "raw", "output_mask": null, "output_shape": null, "dot_axes": -1}, "name": "mixed9_0", "class_name": "Merge", "inbound_nodes": [[["batchnormalization_79", 0, 0], ["batchnormalization_80", 0, 0]]]}, {"config": {"concat_axis": 3, "output_mask_type": "raw", "mode": "concat", "mode_type": "raw", "arguments": {}, "name": "merge_1", "output_shape_type": "raw", "output_mask": null, "output_shape": null, "dot_axes": -1}, "name": "merge_1", "class_name": "Merge", "inbound_nodes": [[["batchnormalization_83", 0, 0], ["batchnormalization_84", 0, 0]]]}, {"config": {"gamma_regularizer": null, "epsilon": 0.001, "trainable": true, "momentum": 0.99, "axis": 3, "beta_regularizer": null, "name": "batchnormalization_85", "mode": 0}, "name": "batchnormalization_85", "class_name": "BatchNormalization", "inbound_nodes": [[["convolution2d_85", 0, 0]]]}, {"config": {"concat_axis": 3, "output_mask_type": "raw", "mode": "concat", "mode_type": "raw", "arguments": {}, "name": "mixed9", "output_shape_type": "raw", "output_mask": null, "output_shape": null, "dot_axes": -1}, "name": "mixed9", "class_name": "Merge", "inbound_nodes": [[["batchnormalization_77", 0, 0], ["mixed9_0", 0, 0], ["merge_1", 0, 0], ["batchnormalization_85", 0, 0]]]}, {"config": {"W_constraint": null, "bias": true, "trainable": true, "nb_col": 1, "b_regularizer": null, "activity_regularizer": null, "name": "convolution2d_90", "init": "glorot_uniform", "nb_filter": 448, "nb_row": 1, "border_mode": "same", "W_regularizer": null, "activation": "relu", "b_constraint": null, "dim_ordering": "tf", "subsample": [1, 1]}, "name": "convolution2d_90", "class_name": "Convolution2D", "inbound_nodes": [[["mixed9", 0, 0]]]}, {"config": {"gamma_regularizer": null, "epsilon": 0.001, "trainable": true, "momentum": 0.99, "axis": 3, "beta_regularizer": null, "name": "batchnormalization_90", "mode": 0}, "name": "batchnormalization_90", "class_name": "BatchNormalization", "inbound_nodes": [[["convolution2d_90", 0, 0]]]}, {"config": {"W_constraint": null, "bias": true, "trainable": true, "nb_col": 1, "b_regularizer": null, "activity_regularizer": null, "name": "convolution2d_87", "init": "glorot_uniform", "nb_filter": 384, "nb_row": 1, "border_mode": "same", "W_regularizer": null, "activation": "relu", "b_constraint": null, "dim_ordering": "tf", "subsample": [1, 1]}, "name": "convolution2d_87", "class_name": "Convolution2D", "inbound_nodes": [[["mixed9", 0, 0]]]}, {"config": {"W_constraint": null, "bias": true, "trainable": true, "nb_col": 3, "b_regularizer": null, "activity_regularizer": null, "name": "convolution2d_91", "init": "glorot_uniform", "nb_filter": 384, "nb_row": 3, "border_mode": "same", "W_regularizer": null, "activation": "relu", "b_constraint": null, "dim_ordering": "tf", "subsample": [1, 1]}, "name": "convolution2d_91", "class_name": "Convolution2D", "inbound_nodes": [[["batchnormalization_90", 0, 0]]]}, {"config": {"gamma_regularizer": null, "epsilon": 0.001, "trainable": true, "momentum": 0.99, "axis": 3, "beta_regularizer": null, "name": "batchnormalization_87", "mode": 0}, "name": "batchnormalization_87", "class_name": "BatchNormalization", "inbound_nodes": [[["convolution2d_87", 0, 0]]]}, {"config": {"gamma_regularizer": null, "epsilon": 0.001, "trainable": true, "momentum": 0.99, "axis": 3, "beta_regularizer": null, "name": "batchnormalization_91", "mode": 0}, "name": "batchnormalization_91", "class_name": "BatchNormalization", "inbound_nodes": [[["convolution2d_91", 0, 0]]]}, {"config": {"W_constraint": null, "bias": true, "trainable": true, "nb_col": 3, "b_regularizer": null, "activity_regularizer": null, "name": "convolution2d_88", "init": "glorot_uniform", "nb_filter": 384, "nb_row": 1, "border_mode": "same", "W_regularizer": null, "activation": "relu", "b_constraint": null, "dim_ordering": "tf", "subsample": [1, 1]}, "name": "convolution2d_88", "class_name": "Convolution2D", "inbound_nodes": [[["batchnormalization_87", 0, 0]]]}, {"config": {"W_constraint": null, "bias": true, "trainable": true, "nb_col": 1, "b_regularizer": null, "activity_regularizer": null, "name": "convolution2d_89", "init": "glorot_uniform", "nb_filter": 384, "nb_row": 3, "border_mode": "same", "W_regularizer": null, "activation": "relu", "b_constraint": null, "dim_ordering": "tf", "subsample": [1, 1]}, "name": "convolution2d_89", "class_name": "Convolution2D", "inbound_nodes": [[["batchnormalization_87", 0, 0]]]}, {"config": {"W_constraint": null, "bias": true, "trainable": true, "nb_col": 3, "b_regularizer": null, "activity_regularizer": null, "name": "convolution2d_92", "init": "glorot_uniform", "nb_filter": 384, "nb_row": 1, "border_mode": "same", "W_regularizer": null, "activation": "relu", "b_constraint": null, "dim_ordering": "tf", "subsample": [1, 1]}, "name": "convolution2d_92", "class_name": "Convolution2D", "inbound_nodes": [[["batchnormalization_91", 0, 0]]]}, {"config": {"W_constraint": null, "bias": true, "trainable": true, "nb_col": 1, "b_regularizer": null, "activity_regularizer": null, "name": "convolution2d_93", "init": "glorot_uniform", "nb_filter": 384, "nb_row": 3, "border_mode": "same", "W_regularizer": null, "activation": "relu", "b_constraint": null, "dim_ordering": "tf", "subsample": [1, 1]}, "name": "convolution2d_93", "class_name": "Convolution2D", "inbound_nodes": [[["batchnormalization_91", 0, 0]]]}, {"config": {"strides": [1, 1], "border_mode": "same", "name": "averagepooling2d_10", "pool_size": [3, 3], "trainable": true, "dim_ordering": "tf"}, "name": "averagepooling2d_10", "class_name": "AveragePooling2D", "inbound_nodes": [[["mixed9", 0, 0]]]}, {"config": {"W_constraint": null, "bias": true, "trainable": true, "nb_col": 1, "b_regularizer": null, "activity_regularizer": null, "name": "convolution2d_86", "init": "glorot_uniform", "nb_filter": 320, "nb_row": 1, "border_mode": "same", "W_regularizer": null, "activation": "relu", "b_constraint": null, "dim_ordering": "tf", "subsample": [1, 1]}, "name": "convolution2d_86", "class_name": "Convolution2D", "inbound_nodes": [[["mixed9", 0, 0]]]}, {"config": {"gamma_regularizer": null, "epsilon": 0.001, "trainable": true, "momentum": 0.99, "axis": 3, "beta_regularizer": null, "name": "batchnormalization_88", "mode": 0}, "name": "batchnormalization_88", "class_name": "BatchNormalization", "inbound_nodes": [[["convolution2d_88", 0, 0]]]}, {"config": {"gamma_regularizer": null, "epsilon": 0.001, "trainable": true, "momentum": 0.99, "axis": 3, "beta_regularizer": null, "name": "batchnormalization_89", "mode": 0}, "name": "batchnormalization_89", "class_name": "BatchNormalization", "inbound_nodes": [[["convolution2d_89", 0, 0]]]}, {"config": {"gamma_regularizer": null, "epsilon": 0.001, "trainable": true, "momentum": 0.99, "axis": 3, "beta_regularizer": null, "name": "batchnormalization_92", "mode": 0}, "name": "batchnormalization_92", "class_name": "BatchNormalization", "inbound_nodes": [[["convolution2d_92", 0, 0]]]}, {"config": {"gamma_regularizer": null, "epsilon": 0.001, "trainable": true, "momentum": 0.99, "axis": 3, "beta_regularizer": null, "name": "batchnormalization_93", "mode": 0}, "name": "batchnormalization_93", "class_name": "BatchNormalization", "inbound_nodes": [[["convolution2d_93", 0, 0]]]}, {"config": {"W_constraint": null, "bias": true, "trainable": true, "nb_col": 1, "b_regularizer": null, "activity_regularizer": null, "name": "convolution2d_94", "init": "glorot_uniform", "nb_filter": 192, "nb_row": 1, "border_mode": "same", "W_regularizer": null, "activation": "relu", "b_constraint": null, "dim_ordering": "tf", "subsample": [1, 1]}, "name": "convolution2d_94", "class_name": "Convolution2D", "inbound_nodes": [[["averagepooling2d_10", 0, 0]]]}, {"config": {"gamma_regularizer": null, "epsilon": 0.001, "trainable": true, "momentum": 0.99, "axis": 3, "beta_regularizer": null, "name": "batchnormalization_86", "mode": 0}, "name": "batchnormalization_86", "class_name": "BatchNormalization", "inbound_nodes": [[["convolution2d_86", 0, 0]]]}, {"config": {"concat_axis": 3, "output_mask_type": "raw", "mode": "concat", "mode_type": "raw", "arguments": {}, "name": "mixed9_1", "output_shape_type": "raw", "output_mask": null, "output_shape": null, "dot_axes": -1}, "name": "mixed9_1", "class_name": "Merge", "inbound_nodes": [[["batchnormalization_88", 0, 0], ["batchnormalization_89", 0, 0]]]}, {"config": {"concat_axis": 3, "output_mask_type": "raw", "mode": "concat", "mode_type": "raw", "arguments": {}, "name": "merge_2", "output_shape_type": "raw", "output_mask": null, "output_shape": null, "dot_axes": -1}, "name": "merge_2", "class_name": "Merge", "inbound_nodes": [[["batchnormalization_92", 0, 0], ["batchnormalization_93", 0, 0]]]}, {"config": {"gamma_regularizer": null, "epsilon": 0.001, "trainable": true, "momentum": 0.99, "axis": 3, "beta_regularizer": null, "name": "batchnormalization_94", "mode": 0}, "name": "batchnormalization_94", "class_name": "BatchNormalization", "inbound_nodes": [[["convolution2d_94", 0, 0]]]}, {"config": {"concat_axis": 3, "output_mask_type": "raw", "mode": "concat", "mode_type": "raw", "arguments": {}, "name": "mixed10", "output_shape_type": "raw", "output_mask": null, "output_shape": null, "dot_axes": -1}, "name": "mixed10", "class_name": "Merge", "inbound_nodes": [[["batchnormalization_86", 0, 0], ["mixed9_1", 0, 0], ["merge_2", 0, 0], ["batchnormalization_94", 0, 0]]]}, {"config": {"strides": [8, 8], "border_mode": "valid", "name": "averagepooling2d_11", "pool_size": [8, 8], "trainable": true, "dim_ordering": "tf"}, "name": "averagepooling2d_11", "class_name": "AveragePooling2D", "inbound_nodes": [[["mixed10", 0, 0]]]}, {"config": {"trainable": true, "name": "dropout_1", "p": 0.8}, "name": "dropout_1", "class_name": "Dropout", "inbound_nodes": [[["averagepooling2d_11", 0, 0]]]}, {"config": {"trainable": true, "name": "flatten_1"}, "name": "flatten_1", "class_name": "Flatten", "inbound_nodes": [[["dropout_1", 0, 0]]]}, {"config": {"W_constraint": null, "b_regularizer": null, "bias": true, "activity_regularizer": null, "name": "dense_1", "init": "glorot_uniform", "b_constraint": null, "W_regularizer": {"l1": 0.0, "l2": 0.0005000000237487257, "name": "L1L2Regularizer"}, "activation": "softmax", "trainable": true, "input_dim": 2048, "output_dim": 8}, "name": "dense_1", "class_name": "Dense", "inbound_nodes": [[["flatten_1", 0, 0]]]}], "name": "model_1", "input_layers": [["input_1", 0, 0]], "output_layers": [["dense_1", 0, 0]]}}