{"config": {"layers": [{"config": {"input_dtype": "float32", "batch_input_shape": [null, 299, 299, 3], "sparse": false, "name": "input_1"}, "class_name": "InputLayer", "inbound_nodes": [], "name": "input_1"}, {"config": {"bias": true, "activity_regularizer": null, "name": "convolution2d_1", "init": "glorot_uniform", "subsample": [2, 2], "nb_filter": 32, "trainable": true, "border_mode": "valid", "b_constraint": null, "activation": "relu", "W_constraint": null, "W_regularizer": null, "nb_row": 3, "dim_ordering": "tf", "nb_col": 3, "b_regularizer": null}, "class_name": "Convolution2D", "inbound_nodes": [[["input_1", 0, 0]]], "name": "convolution2d_1"}, {"config": {"mode": 0, "beta_regularizer": null, "name": "batchnormalization_1", "momentum": 0.99, "epsilon": 0.001, "axis": 3, "trainable": true, "gamma_regularizer": null}, "class_name": "BatchNormalization", "inbound_nodes": [[["convolution2d_1", 0, 0]]], "name": "batchnormalization_1"}, {"config": {"bias": true, "activity_regularizer": null, "name": "convolution2d_2", "init": "glorot_uniform", "subsample": [1, 1], "nb_filter": 32, "trainable": true, "border_mode": "valid", "b_constraint": null, "activation": "relu", "W_constraint": null, "W_regularizer": null, "nb_row": 3, "dim_ordering": "tf", "nb_col": 3, "b_regularizer": null}, "class_name": "Convolution2D", "inbound_nodes": [[["batchnormalization_1", 0, 0]]], "name": "convolution2d_2"}, {"config": {"mode": 0, "beta_regularizer": null, "name": "batchnormalization_2", "momentum": 0.99, "epsilon": 0.001, "axis": 3, "trainable": true, "gamma_regularizer": null}, "class_name": "BatchNormalization", "inbound_nodes": [[["convolution2d_2", 0, 0]]], "name": "batchnormalization_2"}, {"config": {"bias": true, "activity_regularizer": null, "name": "convolution2d_3", "init": "glorot_uniform", "subsample": [1, 1], "nb_filter": 64, "trainable": true, "border_mode": "same", "b_constraint": null, "activation": "relu", "W_constraint": null, "W_regularizer": null, "nb_row": 3, "dim_ordering": "tf", "nb_col": 3, "b_regularizer": null}, "class_name": "Convolution2D", "inbound_nodes": [[["batchnormalization_2", 0, 0]]], "name": "convolution2d_3"}, {"config": {"mode": 0, "beta_regularizer": null, "name": "batchnormalization_3", "momentum": 0.99, "epsilon": 0.001, "axis": 3, "trainable": true, "gamma_regularizer": null}, "class_name": "BatchNormalization", "inbound_nodes": [[["convolution2d_3", 0, 0]]], "name": "batchnormalization_3"}, {"config": {"strides": [2, 2], "name": "maxpooling2d_1", "pool_size": [3, 3], "trainable": true, "dim_ordering": "tf", "border_mode": "valid"}, "class_name": "MaxPooling2D", "inbound_nodes": [[["batchnormalization_3", 0, 0]]], "name": "maxpooling2d_1"}, {"config": {"bias": true, "activity_regularizer": null, "name": "convolution2d_4", "init": "glorot_uniform", "subsample": [1, 1], "nb_filter": 80, "trainable": true, "border_mode": "valid", "b_constraint": null, "activation": "relu", "W_constraint": null, "W_regularizer": null, "nb_row": 1, "dim_ordering": "tf", "nb_col": 1, "b_regularizer": null}, "class_name": "Convolution2D", "inbound_nodes": [[["maxpooling2d_1", 0, 0]]], "name": "convolution2d_4"}, {"config": {"mode": 0, "beta_regularizer": null, "name": "batchnormalization_4", "momentum": 0.99, "epsilon": 0.001, "axis": 3, "trainable": true, "gamma_regularizer": null}, "class_name": "BatchNormalization", "inbound_nodes": [[["convolution2d_4", 0, 0]]], "name": "batchnormalization_4"}, {"config": {"bias": true, "activity_regularizer": null, "name": "convolution2d_5", "init": "glorot_uniform", "subsample": [1, 1], "nb_filter": 192, "trainable": true, "border_mode": "valid", "b_constraint": null, "activation": "relu", "W_constraint": null, "W_regularizer": null, "nb_row": 3, "dim_ordering": "tf", "nb_col": 3, "b_regularizer": null}, "class_name": "Convolution2D", "inbound_nodes": [[["batchnormalization_4", 0, 0]]], "name": "convolution2d_5"}, {"config": {"mode": 0, "beta_regularizer": null, "name": "batchnormalization_5", "momentum": 0.99, "epsilon": 0.001, "axis": 3, "trainable": true, "gamma_regularizer": null}, "class_name": "BatchNormalization", "inbound_nodes": [[["convolution2d_5", 0, 0]]], "name": "batchnormalization_5"}, {"config": {"strides": [2, 2], "name": "maxpooling2d_2", "pool_size": [3, 3], "trainable": true, "dim_ordering": "tf", "border_mode": "valid"}, "class_name": "MaxPooling2D", "inbound_nodes": [[["batchnormalization_5", 0, 0]]], "name": "maxpooling2d_2"}, {"config": {"bias": true, "activity_regularizer": null, "name": "convolution2d_9", "init": "glorot_uniform", "subsample": [1, 1], "nb_filter": 64, "trainable": true, "border_mode": "same", "b_constraint": null, "activation": "relu", "W_constraint": null, "W_regularizer": null, "nb_row": 1, "dim_ordering": "tf", "nb_col": 1, "b_regularizer": null}, "class_name": "Convolution2D", "inbound_nodes": [[["maxpooling2d_2", 0, 0]]], "name": "convolution2d_9"}, {"config": {"mode": 0, "beta_regularizer": null, "name": "batchnormalization_9", "momentum": 0.99, "epsilon": 0.001, "axis": 3, "trainable": true, "gamma_regularizer": null}, "class_name": "BatchNormalization", "inbound_nodes": [[["convolution2d_9", 0, 0]]], "name": "batchnormalization_9"}, {"config": {"bias": true, "activity_regularizer": null, "name": "convolution2d_7", "init": "glorot_uniform", "subsample": [1, 1], "nb_filter": 48, "trainable": true, "border_mode": "same", "b_constraint": null, "activation": "relu", "W_constraint": null, "W_regularizer": null, "nb_row": 1, "dim_ordering": "tf", "nb_col": 1, "b_regularizer": null}, "class_name": "Convolution2D", "inbound_nodes": [[["maxpooling2d_2", 0, 0]]], "name": "convolution2d_7"}, {"config": {"bias": true, "activity_regularizer": null, "name": "convolution2d_10", "init": "glorot_uniform", "subsample": [1, 1], "nb_filter": 96, "trainable": true, "border_mode": "same", "b_constraint": null, "activation": "relu", "W_constraint": null, "W_regularizer": null, "nb_row": 3, "dim_ordering": "tf", "nb_col": 3, "b_regularizer": null}, "class_name": "Convolution2D", "inbound_nodes": [[["batchnormalization_9", 0, 0]]], "name": "convolution2d_10"}, {"config": {"mode": 0, "beta_regularizer": null, "name": "batchnormalization_7", "momentum": 0.99, "epsilon": 0.001, "axis": 3, "trainable": true, "gamma_regularizer": null}, "class_name": "BatchNormalization", "inbound_nodes": [[["convolution2d_7", 0, 0]]], "name": "batchnormalization_7"}, {"config": {"mode": 0, "beta_regularizer": null, "name": "batchnormalization_10", "momentum": 0.99, "epsilon": 0.001, "axis": 3, "trainable": true, "gamma_regularizer": null}, "class_name": "BatchNormalization", "inbound_nodes": [[["convolution2d_10", 0, 0]]], "name": "batchnormalization_10"}, {"config": {"strides": [1, 1], "name": "averagepooling2d_1", "pool_size": [3, 3], "trainable": true, "dim_ordering": "tf", "border_mode": "same"}, "class_name": "AveragePooling2D", "inbound_nodes": [[["maxpooling2d_2", 0, 0]]], "name": "averagepooling2d_1"}, {"config": {"bias": true, "activity_regularizer": null, "name": "convolution2d_6", "init": "glorot_uniform", "subsample": [1, 1], "nb_filter": 64, "trainable": true, "border_mode": "same", "b_constraint": null, "activation": "relu", "W_constraint": null, "W_regularizer": null, "nb_row": 1, "dim_ordering": "tf", "nb_col": 1, "b_regularizer": null}, "class_name": "Convolution2D", "inbound_nodes": [[["maxpooling2d_2", 0, 0]]], "name": "convolution2d_6"}, {"config": {"bias": true, "activity_regularizer": null, "name": "convolution2d_8", "init": "glorot_uniform", "subsample": [1, 1], "nb_filter": 64, "trainable": true, "border_mode": "same", "b_constraint": null, "activation": "relu", "W_constraint": null, "W_regularizer": null, "nb_row": 5, "dim_ordering": "tf", "nb_col": 5, "b_regularizer": null}, "class_name": "Convolution2D", "inbound_nodes": [[["batchnormalization_7", 0, 0]]], "name": "convolution2d_8"}, {"config": {"bias": true, "activity_regularizer": null, "name": "convolution2d_11", "init": "glorot_uniform", "subsample": [1, 1], "nb_filter": 96, "trainable": true, "border_mode": "same", "b_constraint": null, "activation": "relu", "W_constraint": null, "W_regularizer": null, "nb_row": 3, "dim_ordering": "tf", "nb_col": 3, "b_regularizer": null}, "class_name": "Convolution2D", "inbound_nodes": [[["batchnormalization_10", 0, 0]]], "name": "convolution2d_11"}, {"config": {"bias": true, "activity_regularizer": null, "name": "convolution2d_12", "init": "glorot_uniform", "subsample": [1, 1], "nb_filter": 32, "trainable": true, "border_mode": "same", "b_constraint": null, "activation": "relu", "W_constraint": null, "W_regularizer": null, "nb_row": 1, "dim_ordering": "tf", "nb_col": 1, "b_regularizer": null}, "class_name": "Convolution2D", "inbound_nodes": [[["averagepooling2d_1", 0, 0]]], "name": "convolution2d_12"}, {"config": {"mode": 0, "beta_regularizer": null, "name": "batchnormalization_6", "momentum": 0.99, "epsilon": 0.001, "axis": 3, "trainable": true, "gamma_regularizer": null}, "class_name": "BatchNormalization", "inbound_nodes": [[["convolution2d_6", 0, 0]]], "name": "batchnormalization_6"}, {"config": {"mode": 0, "beta_regularizer": null, "name": "batchnormalization_8", "momentum": 0.99, "epsilon": 0.001, "axis": 3, "trainable": true, "gamma_regularizer": null}, "class_name": "BatchNormalization", "inbound_nodes": [[["convolution2d_8", 0, 0]]], "name": "batchnormalization_8"}, {"config": {"mode": 0, "beta_regularizer": null, "name": "batchnormalization_11", "momentum": 0.99, "epsilon": 0.001, "axis": 3, "trainable": true, "gamma_regularizer": null}, "class_name": "BatchNormalization", "inbound_nodes": [[["convolution2d_11", 0, 0]]], "name": "batchnormalization_11"}, {"config": {"mode": 0, "beta_regularizer": null, "name": "batchnormalization_12", "momentum": 0.99, "epsilon": 0.001, "axis": 3, "trainable": true, "gamma_regularizer": null}, "class_name": "BatchNormalization", "inbound_nodes": [[["convolution2d_12", 0, 0]]], "name": "batchnormalization_12"}, {"config": {"mode": "concat", "output_mask": null, "concat_axis": 3, "output_shape": null, "name": "mixed0", "output_mask_type": "raw", "dot_axes": -1, "arguments": {}, "mode_type": "raw", "output_shape_type": "raw"}, "class_name": "Merge", "inbound_nodes": [[["batchnormalization_6", 0, 0], ["batchnormalization_8", 0, 0], ["batchnormalization_11", 0, 0], ["batchnormalization_12", 0, 0]]], "name": "mixed0"}, {"config": {"bias": true, "activity_regularizer": null, "name": "convolution2d_16", "init": "glorot_uniform", "subsample": [1, 1], "nb_filter": 64, "trainable": true, "border_mode": "same", "b_constraint": null, "activation": "relu", "W_constraint": null, "W_regularizer": null, "nb_row": 1, "dim_ordering": "tf", "nb_col": 1, "b_regularizer": null}, "class_name": "Convolution2D", "inbound_nodes": [[["mixed0", 0, 0]]], "name": "convolution2d_16"}, {"config": {"mode": 0, "beta_regularizer": null, "name": "batchnormalization_16", "momentum": 0.99, "epsilon": 0.001, "axis": 3, "trainable": true, "gamma_regularizer": null}, "class_name": "BatchNormalization", "inbound_nodes": [[["convolution2d_16", 0, 0]]], "name": "batchnormalization_16"}, {"config": {"bias": true, "activity_regularizer": null, "name": "convolution2d_14", "init": "glorot_uniform", "subsample": [1, 1], "nb_filter": 48, "trainable": true, "border_mode": "same", "b_constraint": null, "activation": "relu", "W_constraint": null, "W_regularizer": null, "nb_row": 1, "dim_ordering": "tf", "nb_col": 1, "b_regularizer": null}, "class_name": "Convolution2D", "inbound_nodes": [[["mixed0", 0, 0]]], "name": "convolution2d_14"}, {"config": {"bias": true, "activity_regularizer": null, "name": "convolution2d_17", "init": "glorot_uniform", "subsample": [1, 1], "nb_filter": 96, "trainable": true, "border_mode": "same", "b_constraint": null, "activation": "relu", "W_constraint": null, "W_regularizer": null, "nb_row": 3, "dim_ordering": "tf", "nb_col": 3, "b_regularizer": null}, "class_name": "Convolution2D", "inbound_nodes": [[["batchnormalization_16", 0, 0]]], "name": "convolution2d_17"}, {"config": {"mode": 0, "beta_regularizer": null, "name": "batchnormalization_14", "momentum": 0.99, "epsilon": 0.001, "axis": 3, "trainable": true, "gamma_regularizer": null}, "class_name": "BatchNormalization", "inbound_nodes": [[["convolution2d_14", 0, 0]]], "name": "batchnormalization_14"}, {"config": {"mode": 0, "beta_regularizer": null, "name": "batchnormalization_17", "momentum": 0.99, "epsilon": 0.001, "axis": 3, "trainable": true, "gamma_regularizer": null}, "class_name": "BatchNormalization", "inbound_nodes": [[["convolution2d_17", 0, 0]]], "name": "batchnormalization_17"}, {"config": {"strides": [1, 1], "name": "averagepooling2d_2", "pool_size": [3, 3], "trainable": true, "dim_ordering": "tf", "border_mode": "same"}, "class_name": "AveragePooling2D", "inbound_nodes": [[["mixed0", 0, 0]]], "name": "averagepooling2d_2"}, {"config": {"bias": true, "activity_regularizer": null, "name": "convolution2d_13", "init": "glorot_uniform", "subsample": [1, 1], "nb_filter": 64, "trainable": true, "border_mode": "same", "b_constraint": null, "activation": "relu", "W_constraint": null, "W_regularizer": null, "nb_row": 1, "dim_ordering": "tf", "nb_col": 1, "b_regularizer": null}, "class_name": "Convolution2D", "inbound_nodes": [[["mixed0", 0, 0]]], "name": "convolution2d_13"}, {"config": {"bias": true, "activity_regularizer": null, "name": "convolution2d_15", "init": "glorot_uniform", "subsample": [1, 1], "nb_filter": 64, "trainable": true, "border_mode": "same", "b_constraint": null, "activation": "relu", "W_constraint": null, "W_regularizer": null, "nb_row": 5, "dim_ordering": "tf", "nb_col": 5, "b_regularizer": null}, "class_name": "Convolution2D", "inbound_nodes": [[["batchnormalization_14", 0, 0]]], "name": "convolution2d_15"}, {"config": {"bias": true, "activity_regularizer": null, "name": "convolution2d_18", "init": "glorot_uniform", "subsample": [1, 1], "nb_filter": 96, "trainable": true, "border_mode": "same", "b_constraint": null, "activation": "relu", "W_constraint": null, "W_regularizer": null, "nb_row": 3, "dim_ordering": "tf", "nb_col": 3, "b_regularizer": null}, "class_name": "Convolution2D", "inbound_nodes": [[["batchnormalization_17", 0, 0]]], "name": "convolution2d_18"}, {"config": {"bias": true, "activity_regularizer": null, "name": "convolution2d_19", "init": "glorot_uniform", "subsample": [1, 1], "nb_filter": 32, "trainable": true, "border_mode": "same", "b_constraint": null, "activation": "relu", "W_constraint": null, "W_regularizer": null, "nb_row": 1, "dim_ordering": "tf", "nb_col": 1, "b_regularizer": null}, "class_name": "Convolution2D", "inbound_nodes": [[["averagepooling2d_2", 0, 0]]], "name": "convolution2d_19"}, {"config": {"mode": 0, "beta_regularizer": null, "name": "batchnormalization_13", "momentum": 0.99, "epsilon": 0.001, "axis": 3, "trainable": true, "gamma_regularizer": null}, "class_name": "BatchNormalization", "inbound_nodes": [[["convolution2d_13", 0, 0]]], "name": "batchnormalization_13"}, {"config": {"mode": 0, "beta_regularizer": null, "name": "batchnormalization_15", "momentum": 0.99, "epsilon": 0.001, "axis": 3, "trainable": true, "gamma_regularizer": null}, "class_name": "BatchNormalization", "inbound_nodes": [[["convolution2d_15", 0, 0]]], "name": "batchnormalization_15"}, {"config": {"mode": 0, "beta_regularizer": null, "name": "batchnormalization_18", "momentum": 0.99, "epsilon": 0.001, "axis": 3, "trainable": true, "gamma_regularizer": null}, "class_name": "BatchNormalization", "inbound_nodes": [[["convolution2d_18", 0, 0]]], "name": "batchnormalization_18"}, {"config": {"mode": 0, "beta_regularizer": null, "name": "batchnormalization_19", "momentum": 0.99, "epsilon": 0.001, "axis": 3, "trainable": true, "gamma_regularizer": null}, "class_name": "BatchNormalization", "inbound_nodes": [[["convolution2d_19", 0, 0]]], "name": "batchnormalization_19"}, {"config": {"mode": "concat", "output_mask": null, "concat_axis": 3, "output_shape": null, "name": "mixed1", "output_mask_type": "raw", "dot_axes": -1, "arguments": {}, "mode_type": "raw", "output_shape_type": "raw"}, "class_name": "Merge", "inbound_nodes": [[["batchnormalization_13", 0, 0], ["batchnormalization_15", 0, 0], ["batchnormalization_18", 0, 0], ["batchnormalization_19", 0, 0]]], "name": "mixed1"}, {"config": {"bias": true, "activity_regularizer": null, "name": "convolution2d_23", "init": "glorot_uniform", "subsample": [1, 1], "nb_filter": 64, "trainable": true, "border_mode": "same", "b_constraint": null, "activation": "relu", "W_constraint": null, "W_regularizer": null, "nb_row": 1, "dim_ordering": "tf", "nb_col": 1, "b_regularizer": null}, "class_name": "Convolution2D", "inbound_nodes": [[["mixed1", 0, 0]]], "name": "convolution2d_23"}, {"config": {"mode": 0, "beta_regularizer": null, "name": "batchnormalization_23", "momentum": 0.99, "epsilon": 0.001, "axis": 3, "trainable": true, "gamma_regularizer": null}, "class_name": "BatchNormalization", "inbound_nodes": [[["convolution2d_23", 0, 0]]], "name": "batchnormalization_23"}, {"config": {"bias": true, "activity_regularizer": null, "name": "convolution2d_21", "init": "glorot_uniform", "subsample": [1, 1], "nb_filter": 48, "trainable": true, "border_mode": "same", "b_constraint": null, "activation": "relu", "W_constraint": null, "W_regularizer": null, "nb_row": 1, "dim_ordering": "tf", "nb_col": 1, "b_regularizer": null}, "class_name": "Convolution2D", "inbound_nodes": [[["mixed1", 0, 0]]], "name": "convolution2d_21"}, {"config": {"bias": true, "activity_regularizer": null, "name": "convolution2d_24", "init": "glorot_uniform", "subsample": [1, 1], "nb_filter": 96, "trainable": true, "border_mode": "same", "b_constraint": null, "activation": "relu", "W_constraint": null, "W_regularizer": null, "nb_row": 3, "dim_ordering": "tf", "nb_col": 3, "b_regularizer": null}, "class_name": "Convolution2D", "inbound_nodes": [[["batchnormalization_23", 0, 0]]], "name": "convolution2d_24"}, {"config": {"mode": 0, "beta_regularizer": null, "name": "batchnormalization_21", "momentum": 0.99, "epsilon": 0.001, "axis": 3, "trainable": true, "gamma_regularizer": null}, "class_name": "BatchNormalization", "inbound_nodes": [[["convolution2d_21", 0, 0]]], "name": "batchnormalization_21"}, {"config": {"mode": 0, "beta_regularizer": null, "name": "batchnormalization_24", "momentum": 0.99, "epsilon": 0.001, "axis": 3, "trainable": true, "gamma_regularizer": null}, "class_name": "BatchNormalization", "inbound_nodes": [[["convolution2d_24", 0, 0]]], "name": "batchnormalization_24"}, {"config": {"strides": [1, 1], "name": "averagepooling2d_3", "pool_size": [3, 3], "trainable": true, "dim_ordering": "tf", "border_mode": "same"}, "class_name": "AveragePooling2D", "inbound_nodes": [[["mixed1", 0, 0]]], "name": "averagepooling2d_3"}, {"config": {"bias": true, "activity_regularizer": null, "name": "convolution2d_20", "init": "glorot_uniform", "subsample": [1, 1], "nb_filter": 64, "trainable": true, "border_mode": "same", "b_constraint": null, "activation": "relu", "W_constraint": null, "W_regularizer": null, "nb_row": 1, "dim_ordering": "tf", "nb_col": 1, "b_regularizer": null}, "class_name": "Convolution2D", "inbound_nodes": [[["mixed1", 0, 0]]], "name": "convolution2d_20"}, {"config": {"bias": true, "activity_regularizer": null, "name": "convolution2d_22", "init": "glorot_uniform", "subsample": [1, 1], "nb_filter": 64, "trainable": true, "border_mode": "same", "b_constraint": null, "activation": "relu", "W_constraint": null, "W_regularizer": null, "nb_row": 5, "dim_ordering": "tf", "nb_col": 5, "b_regularizer": null}, "class_name": "Convolution2D", "inbound_nodes": [[["batchnormalization_21", 0, 0]]], "name": "convolution2d_22"}, {"config": {"bias": true, "activity_regularizer": null, "name": "convolution2d_25", "init": "glorot_uniform", "subsample": [1, 1], "nb_filter": 96, "trainable": true, "border_mode": "same", "b_constraint": null, "activation": "relu", "W_constraint": null, "W_regularizer": null, "nb_row": 3, "dim_ordering": "tf", "nb_col": 3, "b_regularizer": null}, "class_name": "Convolution2D", "inbound_nodes": [[["batchnormalization_24", 0, 0]]], "name": "convolution2d_25"}, {"config": {"bias": true, "activity_regularizer": null, "name": "convolution2d_26", "init": "glorot_uniform", "subsample": [1, 1], "nb_filter": 32, "trainable": true, "border_mode": "same", "b_constraint": null, "activation": "relu", "W_constraint": null, "W_regularizer": null, "nb_row": 1, "dim_ordering": "tf", "nb_col": 1, "b_regularizer": null}, "class_name": "Convolution2D", "inbound_nodes": [[["averagepooling2d_3", 0, 0]]], "name": "convolution2d_26"}, {"config": {"mode": 0, "beta_regularizer": null, "name": "batchnormalization_20", "momentum": 0.99, "epsilon": 0.001, "axis": 3, "trainable": true, "gamma_regularizer": null}, "class_name": "BatchNormalization", "inbound_nodes": [[["convolution2d_20", 0, 0]]], "name": "batchnormalization_20"}, {"config": {"mode": 0, "beta_regularizer": null, "name": "batchnormalization_22", "momentum": 0.99, "epsilon": 0.001, "axis": 3, "trainable": true, "gamma_regularizer": null}, "class_name": "BatchNormalization", "inbound_nodes": [[["convolution2d_22", 0, 0]]], "name": "batchnormalization_22"}, {"config": {"mode": 0, "beta_regularizer": null, "name": "batchnormalization_25", "momentum": 0.99, "epsilon": 0.001, "axis": 3, "trainable": true, "gamma_regularizer": null}, "class_name": "BatchNormalization", "inbound_nodes": [[["convolution2d_25", 0, 0]]], "name": "batchnormalization_25"}, {"config": {"mode": 0, "beta_regularizer": null, "name": "batchnormalization_26", "momentum": 0.99, "epsilon": 0.001, "axis": 3, "trainable": true, "gamma_regularizer": null}, "class_name": "BatchNormalization", "inbound_nodes": [[["convolution2d_26", 0, 0]]], "name": "batchnormalization_26"}, {"config": {"mode": "concat", "output_mask": null, "concat_axis": 3, "output_shape": null, "name": "mixed2", "output_mask_type": "raw", "dot_axes": -1, "arguments": {}, "mode_type": "raw", "output_shape_type": "raw"}, "class_name": "Merge", "inbound_nodes": [[["batchnormalization_20", 0, 0], ["batchnormalization_22", 0, 0], ["batchnormalization_25", 0, 0], ["batchnormalization_26", 0, 0]]], "name": "mixed2"}, {"config": {"bias": true, "activity_regularizer": null, "name": "convolution2d_28", "init": "glorot_uniform", "subsample": [1, 1], "nb_filter": 64, "trainable": true, "border_mode": "same", "b_constraint": null, "activation": "relu", "W_constraint": null, "W_regularizer": null, "nb_row": 1, "dim_ordering": "tf", "nb_col": 1, "b_regularizer": null}, "class_name": "Convolution2D", "inbound_nodes": [[["mixed2", 0, 0]]], "name": "convolution2d_28"}, {"config": {"mode": 0, "beta_regularizer": null, "name": "batchnormalization_28", "momentum": 0.99, "epsilon": 0.001, "axis": 3, "trainable": true, "gamma_regularizer": null}, "class_name": "BatchNormalization", "inbound_nodes": [[["convolution2d_28", 0, 0]]], "name": "batchnormalization_28"}, {"config": {"bias": true, "activity_regularizer": null, "name": "convolution2d_29", "init": "glorot_uniform", "subsample": [1, 1], "nb_filter": 96, "trainable": true, "border_mode": "same", "b_constraint": null, "activation": "relu", "W_constraint": null, "W_regularizer": null, "nb_row": 3, "dim_ordering": "tf", "nb_col": 3, "b_regularizer": null}, "class_name": "Convolution2D", "inbound_nodes": [[["batchnormalization_28", 0, 0]]], "name": "convolution2d_29"}, {"config": {"mode": 0, "beta_regularizer": null, "name": "batchnormalization_29", "momentum": 0.99, "epsilon": 0.001, "axis": 3, "trainable": true, "gamma_regularizer": null}, "class_name": "BatchNormalization", "inbound_nodes": [[["convolution2d_29", 0, 0]]], "name": "batchnormalization_29"}, {"config": {"bias": true, "activity_regularizer": null, "name": "convolution2d_27", "init": "glorot_uniform", "subsample": [2, 2], "nb_filter": 384, "trainable": true, "border_mode": "valid", "b_constraint": null, "activation": "relu", "W_constraint": null, "W_regularizer": null, "nb_row": 3, "dim_ordering": "tf", "nb_col": 3, "b_regularizer": null}, "class_name": "Convolution2D", "inbound_nodes": [[["mixed2", 0, 0]]], "name": "convolution2d_27"}, {"config": {"bias": true, "activity_regularizer": null, "name": "convolution2d_30", "init": "glorot_uniform", "subsample": [2, 2], "nb_filter": 96, "trainable": true, "border_mode": "valid", "b_constraint": null, "activation": "relu", "W_constraint": null, "W_regularizer": null, "nb_row": 3, "dim_ordering": "tf", "nb_col": 3, "b_regularizer": null}, "class_name": "Convolution2D", "inbound_nodes": [[["batchnormalization_29", 0, 0]]], "name": "convolution2d_30"}, {"config": {"mode": 0, "beta_regularizer": null, "name": "batchnormalization_27", "momentum": 0.99, "epsilon": 0.001, "axis": 3, "trainable": true, "gamma_regularizer": null}, "class_name": "BatchNormalization", "inbound_nodes": [[["convolution2d_27", 0, 0]]], "name": "batchnormalization_27"}, {"config": {"mode": 0, "beta_regularizer": null, "name": "batchnormalization_30", "momentum": 0.99, "epsilon": 0.001, "axis": 3, "trainable": true, "gamma_regularizer": null}, "class_name": "BatchNormalization", "inbound_nodes": [[["convolution2d_30", 0, 0]]], "name": "batchnormalization_30"}, {"config": {"strides": [2, 2], "name": "maxpooling2d_3", "pool_size": [3, 3], "trainable": true, "dim_ordering": "tf", "border_mode": "valid"}, "class_name": "MaxPooling2D", "inbound_nodes": [[["mixed2", 0, 0]]], "name": "maxpooling2d_3"}, {"config": {"mode": "concat", "output_mask": null, "concat_axis": 3, "output_shape": null, "name": "mixed3", "output_mask_type": "raw", "dot_axes": -1, "arguments": {}, "mode_type": "raw", "output_shape_type": "raw"}, "class_name": "Merge", "inbound_nodes": [[["batchnormalization_27", 0, 0], ["batchnormalization_30", 0, 0], ["maxpooling2d_3", 0, 0]]], "name": "mixed3"}, {"config": {"bias": true, "activity_regularizer": null, "name": "convolution2d_35", "init": "glorot_uniform", "subsample": [1, 1], "nb_filter": 128, "trainable": true, "border_mode": "same", "b_constraint": null, "activation": "relu", "W_constraint": null, "W_regularizer": null, "nb_row": 1, "dim_ordering": "tf", "nb_col": 1, "b_regularizer": null}, "class_name": "Convolution2D", "inbound_nodes": [[["mixed3", 0, 0]]], "name": "convolution2d_35"}, {"config": {"mode": 0, "beta_regularizer": null, "name": "batchnormalization_35", "momentum": 0.99, "epsilon": 0.001, "axis": 3, "trainable": true, "gamma_regularizer": null}, "class_name": "BatchNormalization", "inbound_nodes": [[["convolution2d_35", 0, 0]]], "name": "batchnormalization_35"}, {"config": {"bias": true, "activity_regularizer": null, "name": "convolution2d_36", "init": "glorot_uniform", "subsample": [1, 1], "nb_filter": 128, "trainable": true, "border_mode": "same", "b_constraint": null, "activation": "relu", "W_constraint": null, "W_regularizer": null, "nb_row": 7, "dim_ordering": "tf", "nb_col": 1, "b_regularizer": null}, "class_name": "Convolution2D", "inbound_nodes": [[["batchnormalization_35", 0, 0]]], "name": "convolution2d_36"}, {"config": {"mode": 0, "beta_regularizer": null, "name": "batchnormalization_36", "momentum": 0.99, "epsilon": 0.001, "axis": 3, "trainable": true, "gamma_regularizer": null}, "class_name": "BatchNormalization", "inbound_nodes": [[["convolution2d_36", 0, 0]]], "name": "batchnormalization_36"}, {"config": {"bias": true, "activity_regularizer": null, "name": "convolution2d_32", "init": "glorot_uniform", "subsample": [1, 1], "nb_filter": 128, "trainable": true, "border_mode": "same", "b_constraint": null, "activation": "relu", "W_constraint": null, "W_regularizer": null, "nb_row": 1, "dim_ordering": "tf", "nb_col": 1, "b_regularizer": null}, "class_name": "Convolution2D", "inbound_nodes": [[["mixed3", 0, 0]]], "name": "convolution2d_32"}, {"config": {"bias": true, "activity_regularizer": null, "name": "convolution2d_37", "init": "glorot_uniform", "subsample": [1, 1], "nb_filter": 128, "trainable": true, "border_mode": "same", "b_constraint": null, "activation": "relu", "W_constraint": null, "W_regularizer": null, "nb_row": 1, "dim_ordering": "tf", "nb_col": 7, "b_regularizer": null}, "class_name": "Convolution2D", "inbound_nodes": [[["batchnormalization_36", 0, 0]]], "name": "convolution2d_37"}, {"config": {"mode": 0, "beta_regularizer": null, "name": "batchnormalization_32", "momentum": 0.99, "epsilon": 0.001, "axis": 3, "trainable": true, "gamma_regularizer": null}, "class_name": "BatchNormalization", "inbound_nodes": [[["convolution2d_32", 0, 0]]], "name": "batchnormalization_32"}, {"config": {"mode": 0, "beta_regularizer": null, "name": "batchnormalization_37", "momentum": 0.99, "epsilon": 0.001, "axis": 3, "trainable": true, "gamma_regularizer": null}, "class_name": "BatchNormalization", "inbound_nodes": [[["convolution2d_37", 0, 0]]], "name": "batchnormalization_37"}, {"config": {"bias": true, "activity_regularizer": null, "name": "convolution2d_33", "init": "glorot_uniform", "subsample": [1, 1], "nb_filter": 128, "trainable": true, "border_mode": "same", "b_constraint": null, "activation": "relu", "W_constraint": null, "W_regularizer": null, "nb_row": 1, "dim_ordering": "tf", "nb_col": 7, "b_regularizer": null}, "class_name": "Convolution2D", "inbound_nodes": [[["batchnormalization_32", 0, 0]]], "name": "convolution2d_33"}, {"config": {"bias": true, "activity_regularizer": null, "name": "convolution2d_38", "init": "glorot_uniform", "subsample": [1, 1], "nb_filter": 128, "trainable": true, "border_mode": "same", "b_constraint": null, "activation": "relu", "W_constraint": null, "W_regularizer": null, "nb_row": 7, "dim_ordering": "tf", "nb_col": 1, "b_regularizer": null}, "class_name": "Convolution2D", "inbound_nodes": [[["batchnormalization_37", 0, 0]]], "name": "convolution2d_38"}, {"config": {"mode": 0, "beta_regularizer": null, "name": "batchnormalization_33", "momentum": 0.99, "epsilon": 0.001, "axis": 3, "trainable": true, "gamma_regularizer": null}, "class_name": "BatchNormalization", "inbound_nodes": [[["convolution2d_33", 0, 0]]], "name": "batchnormalization_33"}, {"config": {"mode": 0, "beta_regularizer": null, "name": "batchnormalization_38", "momentum": 0.99, "epsilon": 0.001, "axis": 3, "trainable": true, "gamma_regularizer": null}, "class_name": "BatchNormalization", "inbound_nodes": [[["convolution2d_38", 0, 0]]], "name": "batchnormalization_38"}, {"config": {"strides": [1, 1], "name": "averagepooling2d_4", "pool_size": [3, 3], "trainable": true, "dim_ordering": "tf", "border_mode": "same"}, "class_name": "AveragePooling2D", "inbound_nodes": [[["mixed3", 0, 0]]], "name": "averagepooling2d_4"}, {"config": {"bias": true, "activity_regularizer": null, "name": "convolution2d_31", "init": "glorot_uniform", "subsample": [1, 1], "nb_filter": 192, "trainable": true, "border_mode": "same", "b_constraint": null, "activation": "relu", "W_constraint": null, "W_regularizer": null, "nb_row": 1, "dim_ordering": "tf", "nb_col": 1, "b_regularizer": null}, "class_name": "Convolution2D", "inbound_nodes": [[["mixed3", 0, 0]]], "name": "convolution2d_31"}, {"config": {"bias": true, "activity_regularizer": null, "name": "convolution2d_34", "init": "glorot_uniform", "subsample": [1, 1], "nb_filter": 192, "trainable": true, "border_mode": "same", "b_constraint": null, "activation": "relu", "W_constraint": null, "W_regularizer": null, "nb_row": 7, "dim_ordering": "tf", "nb_col": 1, "b_regularizer": null}, "class_name": "Convolution2D", "inbound_nodes": [[["batchnormalization_33", 0, 0]]], "name": "convolution2d_34"}, {"config": {"bias": true, "activity_regularizer": null, "name": "convolution2d_39", "init": "glorot_uniform", "subsample": [1, 1], "nb_filter": 192, "trainable": true, "border_mode": "same", "b_constraint": null, "activation": "relu", "W_constraint": null, "W_regularizer": null, "nb_row": 1, "dim_ordering": "tf", "nb_col": 7, "b_regularizer": null}, "class_name": "Convolution2D", "inbound_nodes": [[["batchnormalization_38", 0, 0]]], "name": "convolution2d_39"}, {"config": {"bias": true, "activity_regularizer": null, "name": "convolution2d_40", "init": "glorot_uniform", "subsample": [1, 1], "nb_filter": 192, "trainable": true, "border_mode": "same", "b_constraint": null, "activation": "relu", "W_constraint": null, "W_regularizer": null, "nb_row": 1, "dim_ordering": "tf", "nb_col": 1, "b_regularizer": null}, "class_name": "Convolution2D", "inbound_nodes": [[["averagepooling2d_4", 0, 0]]], "name": "convolution2d_40"}, {"config": {"mode": 0, "beta_regularizer": null, "name": "batchnormalization_31", "momentum": 0.99, "epsilon": 0.001, "axis": 3, "trainable": true, "gamma_regularizer": null}, "class_name": "BatchNormalization", "inbound_nodes": [[["convolution2d_31", 0, 0]]], "name": "batchnormalization_31"}, {"config": {"mode": 0, "beta_regularizer": null, "name": "batchnormalization_34", "momentum": 0.99, "epsilon": 0.001, "axis": 3, "trainable": true, "gamma_regularizer": null}, "class_name": "BatchNormalization", "inbound_nodes": [[["convolution2d_34", 0, 0]]], "name": "batchnormalization_34"}, {"config": {"mode": 0, "beta_regularizer": null, "name": "batchnormalization_39", "momentum": 0.99, "epsilon": 0.001, "axis": 3, "trainable": true, "gamma_regularizer": null}, "class_name": "BatchNormalization", "inbound_nodes": [[["convolution2d_39", 0, 0]]], "name": "batchnormalization_39"}, {"config": {"mode": 0, "beta_regularizer": null, "name": "batchnormalization_40", "momentum": 0.99, "epsilon": 0.001, "axis": 3, "trainable": true, "gamma_regularizer": null}, "class_name": "BatchNormalization", "inbound_nodes": [[["convolution2d_40", 0, 0]]], "name": "batchnormalization_40"}, {"config": {"mode": "concat", "output_mask": null, "concat_axis": 3, "output_shape": null, "name": "mixed4", "output_mask_type": "raw", "dot_axes": -1, "arguments": {}, "mode_type": "raw", "output_shape_type": "raw"}, "class_name": "Merge", "inbound_nodes": [[["batchnormalization_31", 0, 0], ["batchnormalization_34", 0, 0], ["batchnormalization_39", 0, 0], ["batchnormalization_40", 0, 0]]], "name": "mixed4"}, {"config": {"bias": true, "activity_regularizer": null, "name": "convolution2d_45", "init": "glorot_uniform", "subsample": [1, 1], "nb_filter": 160, "trainable": true, "border_mode": "same", "b_constraint": null, "activation": "relu", "W_constraint": null, "W_regularizer": null, "nb_row": 1, "dim_ordering": "tf", "nb_col": 1, "b_regularizer": null}, "class_name": "Convolution2D", "inbound_nodes": [[["mixed4", 0, 0]]], "name": "convolution2d_45"}, {"config": {"mode": 0, "beta_regularizer": null, "name": "batchnormalization_45", "momentum": 0.99, "epsilon": 0.001, "axis": 3, "trainable": true, "gamma_regularizer": null}, "class_name": "BatchNormalization", "inbound_nodes": [[["convolution2d_45", 0, 0]]], "name": "batchnormalization_45"}, {"config": {"bias": true, "activity_regularizer": null, "name": "convolution2d_46", "init": "glorot_uniform", "subsample": [1, 1], "nb_filter": 160, "trainable": true, "border_mode": "same", "b_constraint": null, "activation": "relu", "W_constraint": null, "W_regularizer": null, "nb_row": 7, "dim_ordering": "tf", "nb_col": 1, "b_regularizer": null}, "class_name": "Convolution2D", "inbound_nodes": [[["batchnormalization_45", 0, 0]]], "name": "convolution2d_46"}, {"config": {"mode": 0, "beta_regularizer": null, "name": "batchnormalization_46", "momentum": 0.99, "epsilon": 0.001, "axis": 3, "trainable": true, "gamma_regularizer": null}, "class_name": "BatchNormalization", "inbound_nodes": [[["convolution2d_46", 0, 0]]], "name": "batchnormalization_46"}, {"config": {"bias": true, "activity_regularizer": null, "name": "convolution2d_42", "init": "glorot_uniform", "subsample": [1, 1], "nb_filter": 160, "trainable": true, "border_mode": "same", "b_constraint": null, "activation": "relu", "W_constraint": null, "W_regularizer": null, "nb_row": 1, "dim_ordering": "tf", "nb_col": 1, "b_regularizer": null}, "class_name": "Convolution2D", "inbound_nodes": [[["mixed4", 0, 0]]], "name": "convolution2d_42"}, {"config": {"bias": true, "activity_regularizer": null, "name": "convolution2d_47", "init": "glorot_uniform", "subsample": [1, 1], "nb_filter": 160, "trainable": true, "border_mode": "same", "b_constraint": null, "activation": "relu", "W_constraint": null, "W_regularizer": null, "nb_row": 1, "dim_ordering": "tf", "nb_col": 7, "b_regularizer": null}, "class_name": "Convolution2D", "inbound_nodes": [[["batchnormalization_46", 0, 0]]], "name": "convolution2d_47"}, {"config": {"mode": 0, "beta_regularizer": null, "name": "batchnormalization_42", "momentum": 0.99, "epsilon": 0.001, "axis": 3, "trainable": true, "gamma_regularizer": null}, "class_name": "BatchNormalization", "inbound_nodes": [[["convolution2d_42", 0, 0]]], "name": "batchnormalization_42"}, {"config": {"mode": 0, "beta_regularizer": null, "name": "batchnormalization_47", "momentum": 0.99, "epsilon": 0.001, "axis": 3, "trainable": true, "gamma_regularizer": null}, "class_name": "BatchNormalization", "inbound_nodes": [[["convolution2d_47", 0, 0]]], "name": "batchnormalization_47"}, {"config": {"bias": true, "activity_regularizer": null, "name": "convolution2d_43", "init": "glorot_uniform", "subsample": [1, 1], "nb_filter": 160, "trainable": true, "border_mode": "same", "b_constraint": null, "activation": "relu", "W_constraint": null, "W_regularizer": null, "nb_row": 1, "dim_ordering": "tf", "nb_col": 7, "b_regularizer": null}, "class_name": "Convolution2D", "inbound_nodes": [[["batchnormalization_42", 0, 0]]], "name": "convolution2d_43"}, {"config": {"bias": true, "activity_regularizer": null, "name": "convolution2d_48", "init": "glorot_uniform", "subsample": [1, 1], "nb_filter": 160, "trainable": true, "border_mode": "same", "b_constraint": null, "activation": "relu", "W_constraint": null, "W_regularizer": null, "nb_row": 7, "dim_ordering": "tf", "nb_col": 1, "b_regularizer": null}, "class_name": "Convolution2D", "inbound_nodes": [[["batchnormalization_47", 0, 0]]], "name": "convolution2d_48"}, {"config": {"mode": 0, "beta_regularizer": null, "name": "batchnormalization_43", "momentum": 0.99, "epsilon": 0.001, "axis": 3, "trainable": true, "gamma_regularizer": null}, "class_name": "BatchNormalization", "inbound_nodes": [[["convolution2d_43", 0, 0]]], "name": "batchnormalization_43"}, {"config": {"mode": 0, "beta_regularizer": null, "name": "batchnormalization_48", "momentum": 0.99, "epsilon": 0.001, "axis": 3, "trainable": true, "gamma_regularizer": null}, "class_name": "BatchNormalization", "inbound_nodes": [[["convolution2d_48", 0, 0]]], "name": "batchnormalization_48"}, {"config": {"strides": [1, 1], "name": "averagepooling2d_5", "pool_size": [3, 3], "trainable": true, "dim_ordering": "tf", "border_mode": "same"}, "class_name": "AveragePooling2D", "inbound_nodes": [[["mixed4", 0, 0]]], "name": "averagepooling2d_5"}, {"config": {"bias": true, "activity_regularizer": null, "name": "convolution2d_41", "init": "glorot_uniform", "subsample": [1, 1], "nb_filter": 192, "trainable": true, "border_mode": "same", "b_constraint": null, "activation": "relu", "W_constraint": null, "W_regularizer": null, "nb_row": 1, "dim_ordering": "tf", "nb_col": 1, "b_regularizer": null}, "class_name": "Convolution2D", "inbound_nodes": [[["mixed4", 0, 0]]], "name": "convolution2d_41"}, {"config": {"bias": true, "activity_regularizer": null, "name": "convolution2d_44", "init": "glorot_uniform", "subsample": [1, 1], "nb_filter": 192, "trainable": true, "border_mode": "same", "b_constraint": null, "activation": "relu", "W_constraint": null, "W_regularizer": null, "nb_row": 7, "dim_ordering": "tf", "nb_col": 1, "b_regularizer": null}, "class_name": "Convolution2D", "inbound_nodes": [[["batchnormalization_43", 0, 0]]], "name": "convolution2d_44"}, {"config": {"bias": true, "activity_regularizer": null, "name": "convolution2d_49", "init": "glorot_uniform", "subsample": [1, 1], "nb_filter": 192, "trainable": true, "border_mode": "same", "b_constraint": null, "activation": "relu", "W_constraint": null, "W_regularizer": null, "nb_row": 1, "dim_ordering": "tf", "nb_col": 7, "b_regularizer": null}, "class_name": "Convolution2D", "inbound_nodes": [[["batchnormalization_48", 0, 0]]], "name": "convolution2d_49"}, {"config": {"bias": true, "activity_regularizer": null, "name": "convolution2d_50", "init": "glorot_uniform", "subsample": [1, 1], "nb_filter": 192, "trainable": true, "border_mode": "same", "b_constraint": null, "activation": "relu", "W_constraint": null, "W_regularizer": null, "nb_row": 1, "dim_ordering": "tf", "nb_col": 1, "b_regularizer": null}, "class_name": "Convolution2D", "inbound_nodes": [[["averagepooling2d_5", 0, 0]]], "name": "convolution2d_50"}, {"config": {"mode": 0, "beta_regularizer": null, "name": "batchnormalization_41", "momentum": 0.99, "epsilon": 0.001, "axis": 3, "trainable": true, "gamma_regularizer": null}, "class_name": "BatchNormalization", "inbound_nodes": [[["convolution2d_41", 0, 0]]], "name": "batchnormalization_41"}, {"config": {"mode": 0, "beta_regularizer": null, "name": "batchnormalization_44", "momentum": 0.99, "epsilon": 0.001, "axis": 3, "trainable": true, "gamma_regularizer": null}, "class_name": "BatchNormalization", "inbound_nodes": [[["convolution2d_44", 0, 0]]], "name": "batchnormalization_44"}, {"config": {"mode": 0, "beta_regularizer": null, "name": "batchnormalization_49", "momentum": 0.99, "epsilon": 0.001, "axis": 3, "trainable": true, "gamma_regularizer": null}, "class_name": "BatchNormalization", "inbound_nodes": [[["convolution2d_49", 0, 0]]], "name": "batchnormalization_49"}, {"config": {"mode": 0, "beta_regularizer": null, "name": "batchnormalization_50", "momentum": 0.99, "epsilon": 0.001, "axis": 3, "trainable": true, "gamma_regularizer": null}, "class_name": "BatchNormalization", "inbound_nodes": [[["convolution2d_50", 0, 0]]], "name": "batchnormalization_50"}, {"config": {"mode": "concat", "output_mask": null, "concat_axis": 3, "output_shape": null, "name": "mixed5", "output_mask_type": "raw", "dot_axes": -1, "arguments": {}, "mode_type": "raw", "output_shape_type": "raw"}, "class_name": "Merge", "inbound_nodes": [[["batchnormalization_41", 0, 0], ["batchnormalization_44", 0, 0], ["batchnormalization_49", 0, 0], ["batchnormalization_50", 0, 0]]], "name": "mixed5"}, {"config": {"bias": true, "activity_regularizer": null, "name": "convolution2d_55", "init": "glorot_uniform", "subsample": [1, 1], "nb_filter": 160, "trainable": true, "border_mode": "same", "b_constraint": null, "activation": "relu", "W_constraint": null, "W_regularizer": null, "nb_row": 1, "dim_ordering": "tf", "nb_col": 1, "b_regularizer": null}, "class_name": "Convolution2D", "inbound_nodes": [[["mixed5", 0, 0]]], "name": "convolution2d_55"}, {"config": {"mode": 0, "beta_regularizer": null, "name": "batchnormalization_55", "momentum": 0.99, "epsilon": 0.001, "axis": 3, "trainable": true, "gamma_regularizer": null}, "class_name": "BatchNormalization", "inbound_nodes": [[["convolution2d_55", 0, 0]]], "name": "batchnormalization_55"}, {"config": {"bias": true, "activity_regularizer": null, "name": "convolution2d_56", "init": "glorot_uniform", "subsample": [1, 1], "nb_filter": 160, "trainable": true, "border_mode": "same", "b_constraint": null, "activation": "relu", "W_constraint": null, "W_regularizer": null, "nb_row": 7, "dim_ordering": "tf", "nb_col": 1, "b_regularizer": null}, "class_name": "Convolution2D", "inbound_nodes": [[["batchnormalization_55", 0, 0]]], "name": "convolution2d_56"}, {"config": {"mode": 0, "beta_regularizer": null, "name": "batchnormalization_56", "momentum": 0.99, "epsilon": 0.001, "axis": 3, "trainable": true, "gamma_regularizer": null}, "class_name": "BatchNormalization", "inbound_nodes": [[["convolution2d_56", 0, 0]]], "name": "batchnormalization_56"}, {"config": {"bias": true, "activity_regularizer": null, "name": "convolution2d_52", "init": "glorot_uniform", "subsample": [1, 1], "nb_filter": 160, "trainable": true, "border_mode": "same", "b_constraint": null, "activation": "relu", "W_constraint": null, "W_regularizer": null, "nb_row": 1, "dim_ordering": "tf", "nb_col": 1, "b_regularizer": null}, "class_name": "Convolution2D", "inbound_nodes": [[["mixed5", 0, 0]]], "name": "convolution2d_52"}, {"config": {"bias": true, "activity_regularizer": null, "name": "convolution2d_57", "init": "glorot_uniform", "subsample": [1, 1], "nb_filter": 160, "trainable": true, "border_mode": "same", "b_constraint": null, "activation": "relu", "W_constraint": null, "W_regularizer": null, "nb_row": 1, "dim_ordering": "tf", "nb_col": 7, "b_regularizer": null}, "class_name": "Convolution2D", "inbound_nodes": [[["batchnormalization_56", 0, 0]]], "name": "convolution2d_57"}, {"config": {"mode": 0, "beta_regularizer": null, "name": "batchnormalization_52", "momentum": 0.99, "epsilon": 0.001, "axis": 3, "trainable": true, "gamma_regularizer": null}, "class_name": "BatchNormalization", "inbound_nodes": [[["convolution2d_52", 0, 0]]], "name": "batchnormalization_52"}, {"config": {"mode": 0, "beta_regularizer": null, "name": "batchnormalization_57", "momentum": 0.99, "epsilon": 0.001, "axis": 3, "trainable": true, "gamma_regularizer": null}, "class_name": "BatchNormalization", "inbound_nodes": [[["convolution2d_57", 0, 0]]], "name": "batchnormalization_57"}, {"config": {"bias": true, "activity_regularizer": null, "name": "convolution2d_53", "init": "glorot_uniform", "subsample": [1, 1], "nb_filter": 160, "trainable": true, "border_mode": "same", "b_constraint": null, "activation": "relu", "W_constraint": null, "W_regularizer": null, "nb_row": 1, "dim_ordering": "tf", "nb_col": 7, "b_regularizer": null}, "class_name": "Convolution2D", "inbound_nodes": [[["batchnormalization_52", 0, 0]]], "name": "convolution2d_53"}, {"config": {"bias": true, "activity_regularizer": null, "name": "convolution2d_58", "init": "glorot_uniform", "subsample": [1, 1], "nb_filter": 160, "trainable": true, "border_mode": "same", "b_constraint": null, "activation": "relu", "W_constraint": null, "W_regularizer": null, "nb_row": 7, "dim_ordering": "tf", "nb_col": 1, "b_regularizer": null}, "class_name": "Convolution2D", "inbound_nodes": [[["batchnormalization_57", 0, 0]]], "name": "convolution2d_58"}, {"config": {"mode": 0, "beta_regularizer": null, "name": "batchnormalization_53", "momentum": 0.99, "epsilon": 0.001, "axis": 3, "trainable": true, "gamma_regularizer": null}, "class_name": "BatchNormalization", "inbound_nodes": [[["convolution2d_53", 0, 0]]], "name": "batchnormalization_53"}, {"config": {"mode": 0, "beta_regularizer": null, "name": "batchnormalization_58", "momentum": 0.99, "epsilon": 0.001, "axis": 3, "trainable": true, "gamma_regularizer": null}, "class_name": "BatchNormalization", "inbound_nodes": [[["convolution2d_58", 0, 0]]], "name": "batchnormalization_58"}, {"config": {"strides": [1, 1], "name": "averagepooling2d_6", "pool_size": [3, 3], "trainable": true, "dim_ordering": "tf", "border_mode": "same"}, "class_name": "AveragePooling2D", "inbound_nodes": [[["mixed5", 0, 0]]], "name": "averagepooling2d_6"}, {"config": {"bias": true, "activity_regularizer": null, "name": "convolution2d_51", "init": "glorot_uniform", "subsample": [1, 1], "nb_filter": 192, "trainable": true, "border_mode": "same", "b_constraint": null, "activation": "relu", "W_constraint": null, "W_regularizer": null, "nb_row": 1, "dim_ordering": "tf", "nb_col": 1, "b_regularizer": null}, "class_name": "Convolution2D", "inbound_nodes": [[["mixed5", 0, 0]]], "name": "convolution2d_51"}, {"config": {"bias": true, "activity_regularizer": null, "name": "convolution2d_54", "init": "glorot_uniform", "subsample": [1, 1], "nb_filter": 192, "trainable": true, "border_mode": "same", "b_constraint": null, "activation": "relu", "W_constraint": null, "W_regularizer": null, "nb_row": 7, "dim_ordering": "tf", "nb_col": 1, "b_regularizer": null}, "class_name": "Convolution2D", "inbound_nodes": [[["batchnormalization_53", 0, 0]]], "name": "convolution2d_54"}, {"config": {"bias": true, "activity_regularizer": null, "name": "convolution2d_59", "init": "glorot_uniform", "subsample": [1, 1], "nb_filter": 192, "trainable": true, "border_mode": "same", "b_constraint": null, "activation": "relu", "W_constraint": null, "W_regularizer": null, "nb_row": 1, "dim_ordering": "tf", "nb_col": 7, "b_regularizer": null}, "class_name": "Convolution2D", "inbound_nodes": [[["batchnormalization_58", 0, 0]]], "name": "convolution2d_59"}, {"config": {"bias": true, "activity_regularizer": null, "name": "convolution2d_60", "init": "glorot_uniform", "subsample": [1, 1], "nb_filter": 192, "trainable": true, "border_mode": "same", "b_constraint": null, "activation": "relu", "W_constraint": null, "W_regularizer": null, "nb_row": 1, "dim_ordering": "tf", "nb_col": 1, "b_regularizer": null}, "class_name": "Convolution2D", "inbound_nodes": [[["averagepooling2d_6", 0, 0]]], "name": "convolution2d_60"}, {"config": {"mode": 0, "beta_regularizer": null, "name": "batchnormalization_51", "momentum": 0.99, "epsilon": 0.001, "axis": 3, "trainable": true, "gamma_regularizer": null}, "class_name": "BatchNormalization", "inbound_nodes": [[["convolution2d_51", 0, 0]]], "name": "batchnormalization_51"}, {"config": {"mode": 0, "beta_regularizer": null, "name": "batchnormalization_54", "momentum": 0.99, "epsilon": 0.001, "axis": 3, "trainable": true, "gamma_regularizer": null}, "class_name": "BatchNormalization", "inbound_nodes": [[["convolution2d_54", 0, 0]]], "name": "batchnormalization_54"}, {"config": {"mode": 0, "beta_regularizer": null, "name": "batchnormalization_59", "momentum": 0.99, "epsilon": 0.001, "axis": 3, "trainable": true, "gamma_regularizer": null}, "class_name": "BatchNormalization", "inbound_nodes": [[["convolution2d_59", 0, 0]]], "name": "batchnormalization_59"}, {"config": {"mode": 0, "beta_regularizer": null, "name": "batchnormalization_60", "momentum": 0.99, "epsilon": 0.001, "axis": 3, "trainable": true, "gamma_regularizer": null}, "class_name": "BatchNormalization", "inbound_nodes": [[["convolution2d_60", 0, 0]]], "name": "batchnormalization_60"}, {"config": {"mode": "concat", "output_mask": null, "concat_axis": 3, "output_shape": null, "name": "mixed6", "output_mask_type": "raw", "dot_axes": -1, "arguments": {}, "mode_type": "raw", "output_shape_type": "raw"}, "class_name": "Merge", "inbound_nodes": [[["batchnormalization_51", 0, 0], ["batchnormalization_54", 0, 0], ["batchnormalization_59", 0, 0], ["batchnormalization_60", 0, 0]]], "name": "mixed6"}, {"config": {"bias": true, "activity_regularizer": null, "name": "convolution2d_65", "init": "glorot_uniform", "subsample": [1, 1], "nb_filter": 160, "trainable": true, "border_mode": "same", "b_constraint": null, "activation": "relu", "W_constraint": null, "W_regularizer": null, "nb_row": 1, "dim_ordering": "tf", "nb_col": 1, "b_regularizer": null}, "class_name": "Convolution2D", "inbound_nodes": [[["mixed6", 0, 0]]], "name": "convolution2d_65"}, {"config": {"mode": 0, "beta_regularizer": null, "name": "batchnormalization_65", "momentum": 0.99, "epsilon": 0.001, "axis": 3, "trainable": true, "gamma_regularizer": null}, "class_name": "BatchNormalization", "inbound_nodes": [[["convolution2d_65", 0, 0]]], "name": "batchnormalization_65"}, {"config": {"bias": true, "activity_regularizer": null, "name": "convolution2d_66", "init": "glorot_uniform", "subsample": [1, 1], "nb_filter": 192, "trainable": true, "border_mode": "same", "b_constraint": null, "activation": "relu", "W_constraint": null, "W_regularizer": null, "nb_row": 7, "dim_ordering": "tf", "nb_col": 1, "b_regularizer": null}, "class_name": "Convolution2D", "inbound_nodes": [[["batchnormalization_65", 0, 0]]], "name": "convolution2d_66"}, {"config": {"mode": 0, "beta_regularizer": null, "name": "batchnormalization_66", "momentum": 0.99, "epsilon": 0.001, "axis": 3, "trainable": true, "gamma_regularizer": null}, "class_name": "BatchNormalization", "inbound_nodes": [[["convolution2d_66", 0, 0]]], "name": "batchnormalization_66"}, {"config": {"bias": true, "activity_regularizer": null, "name": "convolution2d_62", "init": "glorot_uniform", "subsample": [1, 1], "nb_filter": 192, "trainable": true, "border_mode": "same", "b_constraint": null, "activation": "relu", "W_constraint": null, "W_regularizer": null, "nb_row": 1, "dim_ordering": "tf", "nb_col": 1, "b_regularizer": null}, "class_name": "Convolution2D", "inbound_nodes": [[["mixed6", 0, 0]]], "name": "convolution2d_62"}, {"config": {"bias": true, "activity_regularizer": null, "name": "convolution2d_67", "init": "glorot_uniform", "subsample": [1, 1], "nb_filter": 192, "trainable": true, "border_mode": "same", "b_constraint": null, "activation": "relu", "W_constraint": null, "W_regularizer": null, "nb_row": 1, "dim_ordering": "tf", "nb_col": 7, "b_regularizer": null}, "class_name": "Convolution2D", "inbound_nodes": [[["batchnormalization_66", 0, 0]]], "name": "convolution2d_67"}, {"config": {"mode": 0, "beta_regularizer": null, "name": "batchnormalization_62", "momentum": 0.99, "epsilon": 0.001, "axis": 3, "trainable": true, "gamma_regularizer": null}, "class_name": "BatchNormalization", "inbound_nodes": [[["convolution2d_62", 0, 0]]], "name": "batchnormalization_62"}, {"config": {"mode": 0, "beta_regularizer": null, "name": "batchnormalization_67", "momentum": 0.99, "epsilon": 0.001, "axis": 3, "trainable": true, "gamma_regularizer": null}, "class_name": "BatchNormalization", "inbound_nodes": [[["convolution2d_67", 0, 0]]], "name": "batchnormalization_67"}, {"config": {"bias": true, "activity_regularizer": null, "name": "convolution2d_63", "init": "glorot_uniform", "subsample": [1, 1], "nb_filter": 192, "trainable": true, "border_mode": "same", "b_constraint": null, "activation": "relu", "W_constraint": null, "W_regularizer": null, "nb_row": 1, "dim_ordering": "tf", "nb_col": 7, "b_regularizer": null}, "class_name": "Convolution2D", "inbound_nodes": [[["batchnormalization_62", 0, 0]]], "name": "convolution2d_63"}, {"config": {"bias": true, "activity_regularizer": null, "name": "convolution2d_68", "init": "glorot_uniform", "subsample": [1, 1], "nb_filter": 192, "trainable": true, "border_mode": "same", "b_constraint": null, "activation": "relu", "W_constraint": null, "W_regularizer": null, "nb_row": 7, "dim_ordering": "tf", "nb_col": 1, "b_regularizer": null}, "class_name": "Convolution2D", "inbound_nodes": [[["batchnormalization_67", 0, 0]]], "name": "convolution2d_68"}, {"config": {"mode": 0, "beta_regularizer": null, "name": "batchnormalization_63", "momentum": 0.99, "epsilon": 0.001, "axis": 3, "trainable": true, "gamma_regularizer": null}, "class_name": "BatchNormalization", "inbound_nodes": [[["convolution2d_63", 0, 0]]], "name": "batchnormalization_63"}, {"config": {"mode": 0, "beta_regularizer": null, "name": "batchnormalization_68", "momentum": 0.99, "epsilon": 0.001, "axis": 3, "trainable": true, "gamma_regularizer": null}, "class_name": "BatchNormalization", "inbound_nodes": [[["convolution2d_68", 0, 0]]], "name": "batchnormalization_68"}, {"config": {"strides": [1, 1], "name": "averagepooling2d_7", "pool_size": [3, 3], "trainable": true, "dim_ordering": "tf", "border_mode": "same"}, "class_name": "AveragePooling2D", "inbound_nodes": [[["mixed6", 0, 0]]], "name": "averagepooling2d_7"}, {"config": {"bias": true, "activity_regularizer": null, "name": "convolution2d_61", "init": "glorot_uniform", "subsample": [1, 1], "nb_filter": 192, "trainable": true, "border_mode": "same", "b_constraint": null, "activation": "relu", "W_constraint": null, "W_regularizer": null, "nb_row": 1, "dim_ordering": "tf", "nb_col": 1, "b_regularizer": null}, "class_name": "Convolution2D", "inbound_nodes": [[["mixed6", 0, 0]]], "name": "convolution2d_61"}, {"config": {"bias": true, "activity_regularizer": null, "name": "convolution2d_64", "init": "glorot_uniform", "subsample": [1, 1], "nb_filter": 192, "trainable": true, "border_mode": "same", "b_constraint": null, "activation": "relu", "W_constraint": null, "W_regularizer": null, "nb_row": 7, "dim_ordering": "tf", "nb_col": 1, "b_regularizer": null}, "class_name": "Convolution2D", "inbound_nodes": [[["batchnormalization_63", 0, 0]]], "name": "convolution2d_64"}, {"config": {"bias": true, "activity_regularizer": null, "name": "convolution2d_69", "init": "glorot_uniform", "subsample": [1, 1], "nb_filter": 192, "trainable": true, "border_mode": "same", "b_constraint": null, "activation": "relu", "W_constraint": null, "W_regularizer": null, "nb_row": 1, "dim_ordering": "tf", "nb_col": 7, "b_regularizer": null}, "class_name": "Convolution2D", "inbound_nodes": [[["batchnormalization_68", 0, 0]]], "name": "convolution2d_69"}, {"config": {"bias": true, "activity_regularizer": null, "name": "convolution2d_70", "init": "glorot_uniform", "subsample": [1, 1], "nb_filter": 192, "trainable": true, "border_mode": "same", "b_constraint": null, "activation": "relu", "W_constraint": null, "W_regularizer": null, "nb_row": 1, "dim_ordering": "tf", "nb_col": 1, "b_regularizer": null}, "class_name": "Convolution2D", "inbound_nodes": [[["averagepooling2d_7", 0, 0]]], "name": "convolution2d_70"}, {"config": {"mode": 0, "beta_regularizer": null, "name": "batchnormalization_61", "momentum": 0.99, "epsilon": 0.001, "axis": 3, "trainable": true, "gamma_regularizer": null}, "class_name": "BatchNormalization", "inbound_nodes": [[["convolution2d_61", 0, 0]]], "name": "batchnormalization_61"}, {"config": {"mode": 0, "beta_regularizer": null, "name": "batchnormalization_64", "momentum": 0.99, "epsilon": 0.001, "axis": 3, "trainable": true, "gamma_regularizer": null}, "class_name": "BatchNormalization", "inbound_nodes": [[["convolution2d_64", 0, 0]]], "name": "batchnormalization_64"}, {"config": {"mode": 0, "beta_regularizer": null, "name": "batchnormalization_69", "momentum": 0.99, "epsilon": 0.001, "axis": 3, "trainable": true, "gamma_regularizer": null}, "class_name": "BatchNormalization", "inbound_nodes": [[["convolution2d_69", 0, 0]]], "name": "batchnormalization_69"}, {"config": {"mode": 0, "beta_regularizer": null, "name": "batchnormalization_70", "momentum": 0.99, "epsilon": 0.001, "axis": 3, "trainable": true, "gamma_regularizer": null}, "class_name": "BatchNormalization", "inbound_nodes": [[["convolution2d_70", 0, 0]]], "name": "batchnormalization_70"}, {"config": {"mode": "concat", "output_mask": null, "concat_axis": 3, "output_shape": null, "name": "mixed7", "output_mask_type": "raw", "dot_axes": -1, "arguments": {}, "mode_type": "raw", "output_shape_type": "raw"}, "class_name": "Merge", "inbound_nodes": [[["batchnormalization_61", 0, 0], ["batchnormalization_64", 0, 0], ["batchnormalization_69", 0, 0], ["batchnormalization_70", 0, 0]]], "name": "mixed7"}, {"config": {"bias": true, "activity_regularizer": null, "name": "convolution2d_73", "init": "glorot_uniform", "subsample": [1, 1], "nb_filter": 192, "trainable": true, "border_mode": "same", "b_constraint": null, "activation": "relu", "W_constraint": null, "W_regularizer": null, "nb_row": 1, "dim_ordering": "tf", "nb_col": 1, "b_regularizer": null}, "class_name": "Convolution2D", "inbound_nodes": [[["mixed7", 0, 0]]], "name": "convolution2d_73"}, {"config": {"mode": 0, "beta_regularizer": null, "name": "batchnormalization_73", "momentum": 0.99, "epsilon": 0.001, "axis": 3, "trainable": true, "gamma_regularizer": null}, "class_name": "BatchNormalization", "inbound_nodes": [[["convolution2d_73", 0, 0]]], "name": "batchnormalization_73"}, {"config": {"bias": true, "activity_regularizer": null, "name": "convolution2d_74", "init": "glorot_uniform", "subsample": [1, 1], "nb_filter": 192, "trainable": true, "border_mode": "same", "b_constraint": null, "activation": "relu", "W_constraint": null, "W_regularizer": null, "nb_row": 1, "dim_ordering": "tf", "nb_col": 7, "b_regularizer": null}, "class_name": "Convolution2D", "inbound_nodes": [[["batchnormalization_73", 0, 0]]], "name": "convolution2d_74"}, {"config": {"mode": 0, "beta_regularizer": null, "name": "batchnormalization_74", "momentum": 0.99, "epsilon": 0.001, "axis": 3, "trainable": true, "gamma_regularizer": null}, "class_name": "BatchNormalization", "inbound_nodes": [[["convolution2d_74", 0, 0]]], "name": "batchnormalization_74"}, {"config": {"bias": true, "activity_regularizer": null, "name": "convolution2d_71", "init": "glorot_uniform", "subsample": [1, 1], "nb_filter": 192, "trainable": true, "border_mode": "same", "b_constraint": null, "activation": "relu", "W_constraint": null, "W_regularizer": null, "nb_row": 1, "dim_ordering": "tf", "nb_col": 1, "b_regularizer": null}, "class_name": "Convolution2D", "inbound_nodes": [[["mixed7", 0, 0]]], "name": "convolution2d_71"}, {"config": {"bias": true, "activity_regularizer": null, "name": "convolution2d_75", "init": "glorot_uniform", "subsample": [1, 1], "nb_filter": 192, "trainable": true, "border_mode": "same", "b_constraint": null, "activation": "relu", "W_constraint": null, "W_regularizer": null, "nb_row": 7, "dim_ordering": "tf", "nb_col": 1, "b_regularizer": null}, "class_name": "Convolution2D", "inbound_nodes": [[["batchnormalization_74", 0, 0]]], "name": "convolution2d_75"}, {"config": {"mode": 0, "beta_regularizer": null, "name": "batchnormalization_71", "momentum": 0.99, "epsilon": 0.001, "axis": 3, "trainable": true, "gamma_regularizer": null}, "class_name": "BatchNormalization", "inbound_nodes": [[["convolution2d_71", 0, 0]]], "name": "batchnormalization_71"}, {"config": {"mode": 0, "beta_regularizer": null, "name": "batchnormalization_75", "momentum": 0.99, "epsilon": 0.001, "axis": 3, "trainable": true, "gamma_regularizer": null}, "class_name": "BatchNormalization", "inbound_nodes": [[["convolution2d_75", 0, 0]]], "name": "batchnormalization_75"}, {"config": {"bias": true, "activity_regularizer": null, "name": "convolution2d_72", "init": "glorot_uniform", "subsample": [2, 2], "nb_filter": 320, "trainable": true, "border_mode": "valid", "b_constraint": null, "activation": "relu", "W_constraint": null, "W_regularizer": null, "nb_row": 3, "dim_ordering": "tf", "nb_col": 3, "b_regularizer": null}, "class_name": "Convolution2D", "inbound_nodes": [[["batchnormalization_71", 0, 0]]], "name": "convolution2d_72"}, {"config": {"bias": true, "activity_regularizer": null, "name": "convolution2d_76", "init": "glorot_uniform", "subsample": [2, 2], "nb_filter": 192, "trainable": true, "border_mode": "valid", "b_constraint": null, "activation": "relu", "W_constraint": null, "W_regularizer": null, "nb_row": 3, "dim_ordering": "tf", "nb_col": 3, "b_regularizer": null}, "class_name": "Convolution2D", "inbound_nodes": [[["batchnormalization_75", 0, 0]]], "name": "convolution2d_76"}, {"config": {"mode": 0, "beta_regularizer": null, "name": "batchnormalization_72", "momentum": 0.99, "epsilon": 0.001, "axis": 3, "trainable": true, "gamma_regularizer": null}, "class_name": "BatchNormalization", "inbound_nodes": [[["convolution2d_72", 0, 0]]], "name": "batchnormalization_72"}, {"config": {"mode": 0, "beta_regularizer": null, "name": "batchnormalization_76", "momentum": 0.99, "epsilon": 0.001, "axis": 3, "trainable": true, "gamma_regularizer": null}, "class_name": "BatchNormalization", "inbound_nodes": [[["convolution2d_76", 0, 0]]], "name": "batchnormalization_76"}, {"config": {"strides": [2, 2], "name": "averagepooling2d_8", "pool_size": [3, 3], "trainable": true, "dim_ordering": "tf", "border_mode": "valid"}, "class_name": "AveragePooling2D", "inbound_nodes": [[["mixed7", 0, 0]]], "name": "averagepooling2d_8"}, {"config": {"mode": "concat", "output_mask": null, "concat_axis": 3, "output_shape": null, "name": "mixed8", "output_mask_type": "raw", "dot_axes": -1, "arguments": {}, "mode_type": "raw", "output_shape_type": "raw"}, "class_name": "Merge", "inbound_nodes": [[["batchnormalization_72", 0, 0], ["batchnormalization_76", 0, 0], ["averagepooling2d_8", 0, 0]]], "name": "mixed8"}, {"config": {"bias": true, "activity_regularizer": null, "name": "convolution2d_81", "init": "glorot_uniform", "subsample": [1, 1], "nb_filter": 448, "trainable": true, "border_mode": "same", "b_constraint": null, "activation": "relu", "W_constraint": null, "W_regularizer": null, "nb_row": 1, "dim_ordering": "tf", "nb_col": 1, "b_regularizer": null}, "class_name": "Convolution2D", "inbound_nodes": [[["mixed8", 0, 0]]], "name": "convolution2d_81"}, {"config": {"mode": 0, "beta_regularizer": null, "name": "batchnormalization_81", "momentum": 0.99, "epsilon": 0.001, "axis": 3, "trainable": true, "gamma_regularizer": null}, "class_name": "BatchNormalization", "inbound_nodes": [[["convolution2d_81", 0, 0]]], "name": "batchnormalization_81"}, {"config": {"bias": true, "activity_regularizer": null, "name": "convolution2d_78", "init": "glorot_uniform", "subsample": [1, 1], "nb_filter": 384, "trainable": true, "border_mode": "same", "b_constraint": null, "activation": "relu", "W_constraint": null, "W_regularizer": null, "nb_row": 1, "dim_ordering": "tf", "nb_col": 1, "b_regularizer": null}, "class_name": "Convolution2D", "inbound_nodes": [[["mixed8", 0, 0]]], "name": "convolution2d_78"}, {"config": {"bias": true, "activity_regularizer": null, "name": "convolution2d_82", "init": "glorot_uniform", "subsample": [1, 1], "nb_filter": 384, "trainable": true, "border_mode": "same", "b_constraint": null, "activation": "relu", "W_constraint": null, "W_regularizer": null, "nb_row": 3, "dim_ordering": "tf", "nb_col": 3, "b_regularizer": null}, "class_name": "Convolution2D", "inbound_nodes": [[["batchnormalization_81", 0, 0]]], "name": "convolution2d_82"}, {"config": {"mode": 0, "beta_regularizer": null, "name": "batchnormalization_78", "momentum": 0.99, "epsilon": 0.001, "axis": 3, "trainable": true, "gamma_regularizer": null}, "class_name": "BatchNormalization", "inbound_nodes": [[["convolution2d_78", 0, 0]]], "name": "batchnormalization_78"}, {"config": {"mode": 0, "beta_regularizer": null, "name": "batchnormalization_82", "momentum": 0.99, "epsilon": 0.001, "axis": 3, "trainable": true, "gamma_regularizer": null}, "class_name": "BatchNormalization", "inbound_nodes": [[["convolution2d_82", 0, 0]]], "name": "batchnormalization_82"}, {"config": {"bias": true, "activity_regularizer": null, "name": "convolution2d_79", "init": "glorot_uniform", "subsample": [1, 1], "nb_filter": 384, "trainable": true, "border_mode": "same", "b_constraint": null, "activation": "relu", "W_constraint": null, "W_regularizer": null, "nb_row": 1, "dim_ordering": "tf", "nb_col": 3, "b_regularizer": null}, "class_name": "Convolution2D", "inbound_nodes": [[["batchnormalization_78", 0, 0]]], "name": "convolution2d_79"}, {"config": {"bias": true, "activity_regularizer": null, "name": "convolution2d_80", "init": "glorot_uniform", "subsample": [1, 1], "nb_filter": 384, "trainable": true, "border_mode": "same", "b_constraint": null, "activation": "relu", "W_constraint": null, "W_regularizer": null, "nb_row": 3, "dim_ordering": "tf", "nb_col": 1, "b_regularizer": null}, "class_name": "Convolution2D", "inbound_nodes": [[["batchnormalization_78", 0, 0]]], "name": "convolution2d_80"}, {"config": {"bias": true, "activity_regularizer": null, "name": "convolution2d_83", "init": "glorot_uniform", "subsample": [1, 1], "nb_filter": 384, "trainable": true, "border_mode": "same", "b_constraint": null, "activation": "relu", "W_constraint": null, "W_regularizer": null, "nb_row": 1, "dim_ordering": "tf", "nb_col": 3, "b_regularizer": null}, "class_name": "Convolution2D", "inbound_nodes": [[["batchnormalization_82", 0, 0]]], "name": "convolution2d_83"}, {"config": {"bias": true, "activity_regularizer": null, "name": "convolution2d_84", "init": "glorot_uniform", "subsample": [1, 1], "nb_filter": 384, "trainable": true, "border_mode": "same", "b_constraint": null, "activation": "relu", "W_constraint": null, "W_regularizer": null, "nb_row": 3, "dim_ordering": "tf", "nb_col": 1, "b_regularizer": null}, "class_name": "Convolution2D", "inbound_nodes": [[["batchnormalization_82", 0, 0]]], "name": "convolution2d_84"}, {"config": {"strides": [1, 1], "name": "averagepooling2d_9", "pool_size": [3, 3], "trainable": true, "dim_ordering": "tf", "border_mode": "same"}, "class_name": "AveragePooling2D", "inbound_nodes": [[["mixed8", 0, 0]]], "name": "averagepooling2d_9"}, {"config": {"bias": true, "activity_regularizer": null, "name": "convolution2d_77", "init": "glorot_uniform", "subsample": [1, 1], "nb_filter": 320, "trainable": true, "border_mode": "same", "b_constraint": null, "activation": "relu", "W_constraint": null, "W_regularizer": null, "nb_row": 1, "dim_ordering": "tf", "nb_col": 1, "b_regularizer": null}, "class_name": "Convolution2D", "inbound_nodes": [[["mixed8", 0, 0]]], "name": "convolution2d_77"}, {"config": {"mode": 0, "beta_regularizer": null, "name": "batchnormalization_79", "momentum": 0.99, "epsilon": 0.001, "axis": 3, "trainable": true, "gamma_regularizer": null}, "class_name": "BatchNormalization", "inbound_nodes": [[["convolution2d_79", 0, 0]]], "name": "batchnormalization_79"}, {"config": {"mode": 0, "beta_regularizer": null, "name": "batchnormalization_80", "momentum": 0.99, "epsilon": 0.001, "axis": 3, "trainable": true, "gamma_regularizer": null}, "class_name": "BatchNormalization", "inbound_nodes": [[["convolution2d_80", 0, 0]]], "name": "batchnormalization_80"}, {"config": {"mode": 0, "beta_regularizer": null, "name": "batchnormalization_83", "momentum": 0.99, "epsilon": 0.001, "axis": 3, "trainable": true, "gamma_regularizer": null}, "class_name": "BatchNormalization", "inbound_nodes": [[["convolution2d_83", 0, 0]]], "name": "batchnormalization_83"}, {"config": {"mode": 0, "beta_regularizer": null, "name": "batchnormalization_84", "momentum": 0.99, "epsilon": 0.001, "axis": 3, "trainable": true, "gamma_regularizer": null}, "class_name": "BatchNormalization", "inbound_nodes": [[["convolution2d_84", 0, 0]]], "name": "batchnormalization_84"}, {"config": {"bias": true, "activity_regularizer": null, "name": "convolution2d_85", "init": "glorot_uniform", "subsample": [1, 1], "nb_filter": 192, "trainable": true, "border_mode": "same", "b_constraint": null, "activation": "relu", "W_constraint": null, "W_regularizer": null, "nb_row": 1, "dim_ordering": "tf", "nb_col": 1, "b_regularizer": null}, "class_name": "Convolution2D", "inbound_nodes": [[["averagepooling2d_9", 0, 0]]], "name": "convolution2d_85"}, {"config": {"mode": 0, "beta_regularizer": null, "name": "batchnormalization_77", "momentum": 0.99, "epsilon": 0.001, "axis": 3, "trainable": true, "gamma_regularizer": null}, "class_name": "BatchNormalization", "inbound_nodes": [[["convolution2d_77", 0, 0]]], "name": "batchnormalization_77"}, {"config": {"mode": "concat", "output_mask": null, "concat_axis": 3, "output_shape": null, "name": "mixed9_0", "output_mask_type": "raw", "dot_axes": -1, "arguments": {}, "mode_type": "raw", "output_shape_type": "raw"}, "class_name": "Merge", "inbound_nodes": [[["batchnormalization_79", 0, 0], ["batchnormalization_80", 0, 0]]], "name": "mixed9_0"}, {"config": {"mode": "concat", "output_mask": null, "concat_axis": 3, "output_shape": null, "name": "merge_1", "output_mask_type": "raw", "dot_axes": -1, "arguments": {}, "mode_type": "raw", "output_shape_type": "raw"}, "class_name": "Merge", "inbound_nodes": [[["batchnormalization_83", 0, 0], ["batchnormalization_84", 0, 0]]], "name": "merge_1"}, {"config": {"mode": 0, "beta_regularizer": null, "name": "batchnormalization_85", "momentum": 0.99, "epsilon": 0.001, "axis": 3, "trainable": true, "gamma_regularizer": null}, "class_name": "BatchNormalization", "inbound_nodes": [[["convolution2d_85", 0, 0]]], "name": "batchnormalization_85"}, {"config": {"mode": "concat", "output_mask": null, "concat_axis": 3, "output_shape": null, "name": "mixed9", "output_mask_type": "raw", "dot_axes": -1, "arguments": {}, "mode_type": "raw", "output_shape_type": "raw"}, "class_name": "Merge", "inbound_nodes": [[["batchnormalization_77", 0, 0], ["mixed9_0", 0, 0], ["merge_1", 0, 0], ["batchnormalization_85", 0, 0]]], "name": "mixed9"}, {"config": {"bias": true, "activity_regularizer": null, "name": "convolution2d_90", "init": "glorot_uniform", "subsample": [1, 1], "nb_filter": 448, "trainable": true, "border_mode": "same", "b_constraint": null, "activation": "relu", "W_constraint": null, "W_regularizer": null, "nb_row": 1, "dim_ordering": "tf", "nb_col": 1, "b_regularizer": null}, "class_name": "Convolution2D", "inbound_nodes": [[["mixed9", 0, 0]]], "name": "convolution2d_90"}, {"config": {"mode": 0, "beta_regularizer": null, "name": "batchnormalization_90", "momentum": 0.99, "epsilon": 0.001, "axis": 3, "trainable": true, "gamma_regularizer": null}, "class_name": "BatchNormalization", "inbound_nodes": [[["convolution2d_90", 0, 0]]], "name": "batchnormalization_90"}, {"config": {"bias": true, "activity_regularizer": null, "name": "convolution2d_87", "init": "glorot_uniform", "subsample": [1, 1], "nb_filter": 384, "trainable": true, "border_mode": "same", "b_constraint": null, "activation": "relu", "W_constraint": null, "W_regularizer": null, "nb_row": 1, "dim_ordering": "tf", "nb_col": 1, "b_regularizer": null}, "class_name": "Convolution2D", "inbound_nodes": [[["mixed9", 0, 0]]], "name": "convolution2d_87"}, {"config": {"bias": true, "activity_regularizer": null, "name": "convolution2d_91", "init": "glorot_uniform", "subsample": [1, 1], "nb_filter": 384, "trainable": true, "border_mode": "same", "b_constraint": null, "activation": "relu", "W_constraint": null, "W_regularizer": null, "nb_row": 3, "dim_ordering": "tf", "nb_col": 3, "b_regularizer": null}, "class_name": "Convolution2D", "inbound_nodes": [[["batchnormalization_90", 0, 0]]], "name": "convolution2d_91"}, {"config": {"mode": 0, "beta_regularizer": null, "name": "batchnormalization_87", "momentum": 0.99, "epsilon": 0.001, "axis": 3, "trainable": true, "gamma_regularizer": null}, "class_name": "BatchNormalization", "inbound_nodes": [[["convolution2d_87", 0, 0]]], "name": "batchnormalization_87"}, {"config": {"mode": 0, "beta_regularizer": null, "name": "batchnormalization_91", "momentum": 0.99, "epsilon": 0.001, "axis": 3, "trainable": true, "gamma_regularizer": null}, "class_name": "BatchNormalization", "inbound_nodes": [[["convolution2d_91", 0, 0]]], "name": "batchnormalization_91"}, {"config": {"bias": true, "activity_regularizer": null, "name": "convolution2d_88", "init": "glorot_uniform", "subsample": [1, 1], "nb_filter": 384, "trainable": true, "border_mode": "same", "b_constraint": null, "activation": "relu", "W_constraint": null, "W_regularizer": null, "nb_row": 1, "dim_ordering": "tf", "nb_col": 3, "b_regularizer": null}, "class_name": "Convolution2D", "inbound_nodes": [[["batchnormalization_87", 0, 0]]], "name": "convolution2d_88"}, {"config": {"bias": true, "activity_regularizer": null, "name": "convolution2d_89", "init": "glorot_uniform", "subsample": [1, 1], "nb_filter": 384, "trainable": true, "border_mode": "same", "b_constraint": null, "activation": "relu", "W_constraint": null, "W_regularizer": null, "nb_row": 3, "dim_ordering": "tf", "nb_col": 1, "b_regularizer": null}, "class_name": "Convolution2D", "inbound_nodes": [[["batchnormalization_87", 0, 0]]], "name": "convolution2d_89"}, {"config": {"bias": true, "activity_regularizer": null, "name": "convolution2d_92", "init": "glorot_uniform", "subsample": [1, 1], "nb_filter": 384, "trainable": true, "border_mode": "same", "b_constraint": null, "activation": "relu", "W_constraint": null, "W_regularizer": null, "nb_row": 1, "dim_ordering": "tf", "nb_col": 3, "b_regularizer": null}, "class_name": "Convolution2D", "inbound_nodes": [[["batchnormalization_91", 0, 0]]], "name": "convolution2d_92"}, {"config": {"bias": true, "activity_regularizer": null, "name": "convolution2d_93", "init": "glorot_uniform", "subsample": [1, 1], "nb_filter": 384, "trainable": true, "border_mode": "same", "b_constraint": null, "activation": "relu", "W_constraint": null, "W_regularizer": null, "nb_row": 3, "dim_ordering": "tf", "nb_col": 1, "b_regularizer": null}, "class_name": "Convolution2D", "inbound_nodes": [[["batchnormalization_91", 0, 0]]], "name": "convolution2d_93"}, {"config": {"strides": [1, 1], "name": "averagepooling2d_10", "pool_size": [3, 3], "trainable": true, "dim_ordering": "tf", "border_mode": "same"}, "class_name": "AveragePooling2D", "inbound_nodes": [[["mixed9", 0, 0]]], "name": "averagepooling2d_10"}, {"config": {"bias": true, "activity_regularizer": null, "name": "convolution2d_86", "init": "glorot_uniform", "subsample": [1, 1], "nb_filter": 320, "trainable": true, "border_mode": "same", "b_constraint": null, "activation": "relu", "W_constraint": null, "W_regularizer": null, "nb_row": 1, "dim_ordering": "tf", "nb_col": 1, "b_regularizer": null}, "class_name": "Convolution2D", "inbound_nodes": [[["mixed9", 0, 0]]], "name": "convolution2d_86"}, {"config": {"mode": 0, "beta_regularizer": null, "name": "batchnormalization_88", "momentum": 0.99, "epsilon": 0.001, "axis": 3, "trainable": true, "gamma_regularizer": null}, "class_name": "BatchNormalization", "inbound_nodes": [[["convolution2d_88", 0, 0]]], "name": "batchnormalization_88"}, {"config": {"mode": 0, "beta_regularizer": null, "name": "batchnormalization_89", "momentum": 0.99, "epsilon": 0.001, "axis": 3, "trainable": true, "gamma_regularizer": null}, "class_name": "BatchNormalization", "inbound_nodes": [[["convolution2d_89", 0, 0]]], "name": "batchnormalization_89"}, {"config": {"mode": 0, "beta_regularizer": null, "name": "batchnormalization_92", "momentum": 0.99, "epsilon": 0.001, "axis": 3, "trainable": true, "gamma_regularizer": null}, "class_name": "BatchNormalization", "inbound_nodes": [[["convolution2d_92", 0, 0]]], "name": "batchnormalization_92"}, {"config": {"mode": 0, "beta_regularizer": null, "name": "batchnormalization_93", "momentum": 0.99, "epsilon": 0.001, "axis": 3, "trainable": true, "gamma_regularizer": null}, "class_name": "BatchNormalization", "inbound_nodes": [[["convolution2d_93", 0, 0]]], "name": "batchnormalization_93"}, {"config": {"bias": true, "activity_regularizer": null, "name": "convolution2d_94", "init": "glorot_uniform", "subsample": [1, 1], "nb_filter": 192, "trainable": true, "border_mode": "same", "b_constraint": null, "activation": "relu", "W_constraint": null, "W_regularizer": null, "nb_row": 1, "dim_ordering": "tf", "nb_col": 1, "b_regularizer": null}, "class_name": "Convolution2D", "inbound_nodes": [[["averagepooling2d_10", 0, 0]]], "name": "convolution2d_94"}, {"config": {"mode": 0, "beta_regularizer": null, "name": "batchnormalization_86", "momentum": 0.99, "epsilon": 0.001, "axis": 3, "trainable": true, "gamma_regularizer": null}, "class_name": "BatchNormalization", "inbound_nodes": [[["convolution2d_86", 0, 0]]], "name": "batchnormalization_86"}, {"config": {"mode": "concat", "output_mask": null, "concat_axis": 3, "output_shape": null, "name": "mixed9_1", "output_mask_type": "raw", "dot_axes": -1, "arguments": {}, "mode_type": "raw", "output_shape_type": "raw"}, "class_name": "Merge", "inbound_nodes": [[["batchnormalization_88", 0, 0], ["batchnormalization_89", 0, 0]]], "name": "mixed9_1"}, {"config": {"mode": "concat", "output_mask": null, "concat_axis": 3, "output_shape": null, "name": "merge_2", "output_mask_type": "raw", "dot_axes": -1, "arguments": {}, "mode_type": "raw", "output_shape_type": "raw"}, "class_name": "Merge", "inbound_nodes": [[["batchnormalization_92", 0, 0], ["batchnormalization_93", 0, 0]]], "name": "merge_2"}, {"config": {"mode": 0, "beta_regularizer": null, "name": "batchnormalization_94", "momentum": 0.99, "epsilon": 0.001, "axis": 3, "trainable": true, "gamma_regularizer": null}, "class_name": "BatchNormalization", "inbound_nodes": [[["convolution2d_94", 0, 0]]], "name": "batchnormalization_94"}, {"config": {"mode": "concat", "output_mask": null, "concat_axis": 3, "output_shape": null, "name": "mixed10", "output_mask_type": "raw", "dot_axes": -1, "arguments": {}, "mode_type": "raw", "output_shape_type": "raw"}, "class_name": "Merge", "inbound_nodes": [[["batchnormalization_86", 0, 0], ["mixed9_1", 0, 0], ["merge_2", 0, 0], ["batchnormalization_94", 0, 0]]], "name": "mixed10"}, {"config": {"strides": [8, 8], "name": "averagepooling2d_11", "pool_size": [8, 8], "trainable": true, "dim_ordering": "tf", "border_mode": "valid"}, "class_name": "AveragePooling2D", "inbound_nodes": [[["mixed10", 0, 0]]], "name": "averagepooling2d_11"}, {"config": {"p": 0.8, "trainable": true, "name": "dropout_1"}, "class_name": "Dropout", "inbound_nodes": [[["averagepooling2d_11", 0, 0]]], "name": "dropout_1"}, {"config": {"trainable": true, "name": "flatten_1"}, "class_name": "Flatten", "inbound_nodes": [[["dropout_1", 0, 0]]], "name": "flatten_1"}, {"config": {"bias": true, "name": "dense_1", "init": "glorot_uniform", "output_dim": 8, "trainable": true, "activity_regularizer": null, "b_constraint": null, "activation": "softmax", "W_regularizer": {"l1": 0.0, "l2": 0.0005000000237487257, "name": "L1L2Regularizer"}, "input_dim": 2048, "W_constraint": null, "b_regularizer": null}, "class_name": "Dense", "inbound_nodes": [[["flatten_1", 0, 0]]], "name": "dense_1"}], "input_layers": [["input_1", 0, 0]], "name": "model_1", "output_layers": [["dense_1", 0, 0]]}, "keras_version": "1.2.2", "class_name": "Model"}