{"keras_version": "1.2.2", "config": [{"config": {"input_dtype": "float32", "trainable": true, "batch_input_shape": [null, 224, 224, 3], "padding": [1, 1], "name": "zeropadding2d_1"}, "class_name": "ZeroPadding2D"}, {"config": {"border_mode": "valid", "b_constraint": null, "name": "convolution2d_1", "subsample": [1, 1], "init": "glorot_uniform", "bias": true, "activity_regularizer": null, "W_regularizer": null, "W_constraint": null, "b_regularizer": null, "nb_row": 3, "nb_col": 3, "nb_filter": 64, "trainable": true, "dim_ordering": "tf", "activation": "relu"}, "class_name": "Convolution2D"}, {"config": {"name": "zeropadding2d_2", "padding": [1, 1], "trainable": true}, "class_name": "ZeroPadding2D"}, {"config": {"border_mode": "valid", "b_constraint": null, "name": "convolution2d_2", "subsample": [1, 1], "init": "glorot_uniform", "bias": true, "activity_regularizer": null, "W_regularizer": null, "W_constraint": null, "b_regularizer": null, "nb_row": 3, "nb_col": 3, "nb_filter": 64, "trainable": true, "dim_ordering": "tf", "activation": "relu"}, "class_name": "Convolution2D"}, {"config": {"pool_size": [2, 2], "border_mode": "valid", "name": "maxpooling2d_1", "trainable": true, "strides": [2, 2], "dim_ordering": "tf"}, "class_name": "MaxPooling2D"}, {"config": {"name": "zeropadding2d_3", "padding": [1, 1], "trainable": true}, "class_name": "ZeroPadding2D"}, {"config": {"border_mode": "valid", "b_constraint": null, "name": "convolution2d_3", "subsample": [1, 1], "init": "glorot_uniform", "bias": true, "activity_regularizer": null, "W_regularizer": null, "W_constraint": null, "b_regularizer": null, "nb_row": 3, "nb_col": 3, "nb_filter": 128, "trainable": true, "dim_ordering": "tf", "activation": "relu"}, "class_name": "Convolution2D"}, {"config": {"name": "zeropadding2d_4", "padding": [1, 1], "trainable": true}, "class_name": "ZeroPadding2D"}, {"config": {"border_mode": "valid", "b_constraint": null, "name": "convolution2d_4", "subsample": [1, 1], "init": "glorot_uniform", "bias": true, "activity_regularizer": null, "W_regularizer": null, "W_constraint": null, "b_regularizer": null, "nb_row": 3, "nb_col": 3, "nb_filter": 128, "trainable": true, "dim_ordering": "tf", "activation": "relu"}, "class_name": "Convolution2D"}, {"config": {"pool_size": [2, 2], "border_mode": "valid", "name": "maxpooling2d_2", "trainable": true, "strides": [2, 2], "dim_ordering": "tf"}, "class_name": "MaxPooling2D"}, {"config": {"name": "zeropadding2d_5", "padding": [1, 1], "trainable": true}, "class_name": "ZeroPadding2D"}, {"config": {"border_mode": "valid", "b_constraint": null, "name": "convolution2d_5", "subsample": [1, 1], "init": "glorot_uniform", "bias": true, "activity_regularizer": null, "W_regularizer": null, "W_constraint": null, "b_regularizer": null, "nb_row": 3, "nb_col": 3, "nb_filter": 256, "trainable": true, "dim_ordering": "tf", "activation": "relu"}, "class_name": "Convolution2D"}, {"config": {"name": "zeropadding2d_6", "padding": [1, 1], "trainable": true}, "class_name": "ZeroPadding2D"}, {"config": {"border_mode": "valid", "b_constraint": null, "name": "convolution2d_6", "subsample": [1, 1], "init": "glorot_uniform", "bias": true, "activity_regularizer": null, "W_regularizer": null, "W_constraint": null, "b_regularizer": null, "nb_row": 3, "nb_col": 3, "nb_filter": 256, "trainable": true, "dim_ordering": "tf", "activation": "relu"}, "class_name": "Convolution2D"}, {"config": {"name": "zeropadding2d_7", "padding": [1, 1], "trainable": true}, "class_name": "ZeroPadding2D"}, {"config": {"border_mode": "valid", "b_constraint": null, "name": "convolution2d_7", "subsample": [1, 1], "init": "glorot_uniform", "bias": true, "activity_regularizer": null, "W_regularizer": null, "W_constraint": null, "b_regularizer": null, "nb_row": 3, "nb_col": 3, "nb_filter": 256, "trainable": true, "dim_ordering": "tf", "activation": "relu"}, "class_name": "Convolution2D"}, {"config": {"pool_size": [2, 2], "border_mode": "valid", "name": "maxpooling2d_3", "trainable": true, "strides": [2, 2], "dim_ordering": "tf"}, "class_name": "MaxPooling2D"}, {"config": {"name": "zeropadding2d_8", "padding": [1, 1], "trainable": true}, "class_name": "ZeroPadding2D"}, {"config": {"border_mode": "valid", "b_constraint": null, "name": "convolution2d_8", "subsample": [1, 1], "init": "glorot_uniform", "bias": true, "activity_regularizer": null, "W_regularizer": null, "W_constraint": null, "b_regularizer": null, "nb_row": 3, "nb_col": 3, "nb_filter": 512, "trainable": true, "dim_ordering": "tf", "activation": "relu"}, "class_name": "Convolution2D"}, {"config": {"name": "zeropadding2d_9", "padding": [1, 1], "trainable": true}, "class_name": "ZeroPadding2D"}, {"config": {"border_mode": "valid", "b_constraint": null, "name": "convolution2d_9", "subsample": [1, 1], "init": "glorot_uniform", "bias": true, "activity_regularizer": null, "W_regularizer": null, "W_constraint": null, "b_regularizer": null, "nb_row": 3, "nb_col": 3, "nb_filter": 512, "trainable": true, "dim_ordering": "tf", "activation": "relu"}, "class_name": "Convolution2D"}, {"config": {"name": "zeropadding2d_10", "padding": [1, 1], "trainable": true}, "class_name": "ZeroPadding2D"}, {"config": {"border_mode": "valid", "b_constraint": null, "name": "convolution2d_10", "subsample": [1, 1], "init": "glorot_uniform", "bias": true, "activity_regularizer": null, "W_regularizer": null, "W_constraint": null, "b_regularizer": null, "nb_row": 3, "nb_col": 3, "nb_filter": 512, "trainable": true, "dim_ordering": "tf", "activation": "relu"}, "class_name": "Convolution2D"}, {"config": {"pool_size": [2, 2], "border_mode": "valid", "name": "maxpooling2d_4", "trainable": true, "strides": [2, 2], "dim_ordering": "tf"}, "class_name": "MaxPooling2D"}, {"config": {"name": "zeropadding2d_11", "padding": [1, 1], "trainable": true}, "class_name": "ZeroPadding2D"}, {"config": {"border_mode": "valid", "b_constraint": null, "name": "convolution2d_11", "subsample": [1, 1], "init": "glorot_uniform", "bias": true, "activity_regularizer": null, "W_regularizer": null, "W_constraint": null, "b_regularizer": null, "nb_row": 3, "nb_col": 3, "nb_filter": 512, "trainable": true, "dim_ordering": "tf", "activation": "relu"}, "class_name": "Convolution2D"}, {"config": {"name": "zeropadding2d_12", "padding": [1, 1], "trainable": true}, "class_name": "ZeroPadding2D"}, {"config": {"border_mode": "valid", "b_constraint": null, "name": "convolution2d_12", "subsample": [1, 1], "init": "glorot_uniform", "bias": true, "activity_regularizer": null, "W_regularizer": null, "W_constraint": null, "b_regularizer": null, "nb_row": 3, "nb_col": 3, "nb_filter": 512, "trainable": true, "dim_ordering": "tf", "activation": "relu"}, "class_name": "Convolution2D"}, {"config": {"name": "zeropadding2d_13", "padding": [1, 1], "trainable": true}, "class_name": "ZeroPadding2D"}, {"config": {"border_mode": "valid", "b_constraint": null, "name": "convolution2d_13", "subsample": [1, 1], "init": "glorot_uniform", "bias": true, "activity_regularizer": null, "W_regularizer": null, "W_constraint": null, "b_regularizer": null, "nb_row": 3, "nb_col": 3, "nb_filter": 512, "trainable": true, "dim_ordering": "tf", "activation": "relu"}, "class_name": "Convolution2D"}, {"config": {"pool_size": [2, 2], "border_mode": "valid", "name": "maxpooling2d_5", "trainable": true, "strides": [2, 2], "dim_ordering": "tf"}, "class_name": "MaxPooling2D"}, {"config": {"name": "flatten_1", "trainable": true}, "class_name": "Flatten"}, {"config": {"output_dim": 4096, "name": "dense_1", "W_constraint": null, "activity_regularizer": null, "bias": true, "init": "glorot_uniform", "W_regularizer": null, "input_dim": 25088, "b_regularizer": null, "trainable": true, "b_constraint": null, "activation": "relu"}, "class_name": "Dense"}, {"config": {"p": 0.5, "name": "dropout_1", "trainable": true}, "class_name": "Dropout"}, {"config": {"output_dim": 4096, "name": "dense_2", "W_constraint": null, "activity_regularizer": null, "bias": true, "init": "glorot_uniform", "W_regularizer": null, "input_dim": 4096, "b_regularizer": null, "trainable": true, "b_constraint": null, "activation": "relu"}, "class_name": "Dense"}, {"config": {"p": 0.5, "name": "dropout_2", "trainable": true}, "class_name": "Dropout"}, {"config": {"output_dim": 8, "name": "dense_4", "W_constraint": null, "activity_regularizer": null, "bias": true, "init": "glorot_uniform", "W_regularizer": null, "input_dim": 4096, "b_regularizer": null, "trainable": true, "b_constraint": null, "activation": "softmax"}, "class_name": "Dense"}], "class_name": "Sequential"}